<?xml version="1.0" ?>
<net name="model_float32" version="10">
	<layers>
		<layer id="0" name="input:0" type="Parameter" version="opset1">
			<data element_type="f32" shape="1,256,256,3"/>
			<output>
				<port id="0" names="input:0,unstack_StatefulPartitionedCall/unstack:0" precision="FP32">
					<dim>1</dim>
					<dim>256</dim>
					<dim>256</dim>
					<dim>3</dim>
				</port>
			</output>
		</layer>
		<layer id="1" name="unstack_StatefulPartitionedCall/unstack__6/Dims/Output_0/Data__const" type="Const" version="opset1">
			<data element_type="i64" offset="0" shape="1" size="8"/>
			<output>
				<port id="0" precision="I64">
					<dim>1</dim>
				</port>
			</output>
		</layer>
		<layer id="2" name="unstack_StatefulPartitionedCall/unstack__6" type="Squeeze" version="opset1">
			<input>
				<port id="0">
					<dim>1</dim>
					<dim>256</dim>
					<dim>256</dim>
					<dim>3</dim>
				</port>
				<port id="1">
					<dim>1</dim>
				</port>
			</input>
			<output>
				<port id="2" names="unstack_StatefulPartitionedCall/unstack__6:0" precision="FP32">
					<dim>256</dim>
					<dim>256</dim>
					<dim>3</dim>
				</port>
			</output>
		</layer>
		<layer id="3" name="stack_StatefulPartitionedCall/stack1/Cast_121106_const" type="Const" version="opset1">
			<data element_type="i64" offset="8" shape="4" size="32"/>
			<output>
				<port id="0" names="const_fold_opt__491" precision="I64">
					<dim>4</dim>
				</port>
			</output>
		</layer>
		<layer id="4" name="stack_StatefulPartitionedCall/stack1" type="Reshape" version="opset1">
			<data special_zero="true"/>
			<input>
				<port id="0">
					<dim>256</dim>
					<dim>256</dim>
					<dim>3</dim>
				</port>
				<port id="1">
					<dim>4</dim>
				</port>
			</input>
			<output>
				<port id="2" names="stack_StatefulPartitionedCall/stack1:0" precision="FP32">
					<dim>1</dim>
					<dim>256</dim>
					<dim>256</dim>
					<dim>3</dim>
				</port>
			</output>
		</layer>
		<layer id="5" name="truediv_1_StatefulPartitionedCall/truediv_1_truediv_1/y_StatefulPartitionedCall/truediv_1/y1/y:0/EltwiseUnsqueeze8872_const" type="Const" version="opset1">
			<data element_type="f32" offset="40" shape="1,1,1,1" size="4"/>
			<output>
				<port id="0" names="truediv_1_StatefulPartitionedCall/truediv_1_truediv_1/y_StatefulPartitionedCall/truediv_1/y1/y:0" precision="FP32">
					<dim>1</dim>
					<dim>1</dim>
					<dim>1</dim>
					<dim>1</dim>
				</port>
			</output>
		</layer>
		<layer id="6" name="truediv_1_StatefulPartitionedCall/truediv_1_truediv_1/y_StatefulPartitionedCall/truediv_1/y1" type="Multiply" version="opset1">
			<data auto_broadcast="numpy"/>
			<input>
				<port id="0">
					<dim>1</dim>
					<dim>256</dim>
					<dim>256</dim>
					<dim>3</dim>
				</port>
				<port id="1">
					<dim>1</dim>
					<dim>1</dim>
					<dim>1</dim>
					<dim>1</dim>
				</port>
			</input>
			<output>
				<port id="2" names="truediv_1_StatefulPartitionedCall/truediv_1_truediv_1/y_StatefulPartitionedCall/truediv_1/y1:0" precision="FP32">
					<dim>1</dim>
					<dim>256</dim>
					<dim>256</dim>
					<dim>3</dim>
				</port>
			</output>
		</layer>
		<layer id="7" name="sub_1_StatefulPartitionedCall/sub_1/y:0/EltwiseUnsqueeze9180_const" type="Const" version="opset1">
			<data element_type="f32" offset="44" shape="1,1,1,1" size="4"/>
			<output>
				<port id="0" names="sub_1_StatefulPartitionedCall/sub_1/y:0" precision="FP32">
					<dim>1</dim>
					<dim>1</dim>
					<dim>1</dim>
					<dim>1</dim>
				</port>
			</output>
		</layer>
		<layer id="8" name="sub_1_StatefulPartitionedCall/sub_1" type="Add" version="opset1">
			<data auto_broadcast="numpy"/>
			<input>
				<port id="0">
					<dim>1</dim>
					<dim>256</dim>
					<dim>256</dim>
					<dim>3</dim>
				</port>
				<port id="1">
					<dim>1</dim>
					<dim>1</dim>
					<dim>1</dim>
					<dim>1</dim>
				</port>
			</input>
			<output>
				<port id="2" names="sub_1_StatefulPartitionedCall/sub_1:0" precision="FP32">
					<dim>1</dim>
					<dim>256</dim>
					<dim>256</dim>
					<dim>3</dim>
				</port>
			</output>
		</layer>
		<layer id="9" name="Conv2D__8/Cast_121104_const" type="Const" version="opset1">
			<data element_type="i64" offset="48" shape="4" size="32"/>
			<output>
				<port id="0" precision="I64">
					<dim>4</dim>
				</port>
			</output>
		</layer>
		<layer id="10" name="Conv2D__8" type="Transpose" version="opset1">
			<input>
				<port id="0">
					<dim>1</dim>
					<dim>256</dim>
					<dim>256</dim>
					<dim>3</dim>
				</port>
				<port id="1">
					<dim>4</dim>
				</port>
			</input>
			<output>
				<port id="2" names="Conv2D__8:0" precision="FP32">
					<dim>1</dim>
					<dim>3</dim>
					<dim>256</dim>
					<dim>256</dim>
				</port>
			</output>
		</layer>
		<layer id="11" name="Conv2D/filter:0/Output_0/Data__const" type="Const" version="opset1">
			<data element_type="f32" offset="80" shape="56,3,3,3" size="6048"/>
			<output>
				<port id="0" names="Conv2D/filter:0" precision="FP32">
					<dim>56</dim>
					<dim>3</dim>
					<dim>3</dim>
					<dim>3</dim>
				</port>
			</output>
		</layer>
		<layer id="12" name="Conv__361/WithoutBiases" type="Convolution" version="opset1">
			<data auto_pad="explicit" dilations="1,1" pads_begin="0,0" pads_end="1,1" strides="2,2"/>
			<input>
				<port id="0">
					<dim>1</dim>
					<dim>3</dim>
					<dim>256</dim>
					<dim>256</dim>
				</port>
				<port id="1">
					<dim>56</dim>
					<dim>3</dim>
					<dim>3</dim>
					<dim>3</dim>
				</port>
			</input>
			<output>
				<port id="2" precision="FP32">
					<dim>1</dim>
					<dim>56</dim>
					<dim>128</dim>
					<dim>128</dim>
				</port>
			</output>
		</layer>
		<layer id="13" name="Conv__361/Dims50028827/EltwiseUnsqueeze9072_const" type="Const" version="opset1">
			<data element_type="f32" offset="6128" shape="1,56,1,1" size="224"/>
			<output>
				<port id="0" precision="FP32">
					<dim>1</dim>
					<dim>56</dim>
					<dim>1</dim>
					<dim>1</dim>
				</port>
			</output>
		</layer>
		<layer id="14" name="Conv__361" type="Add" version="opset1">
			<data auto_broadcast="numpy"/>
			<input>
				<port id="0">
					<dim>1</dim>
					<dim>56</dim>
					<dim>128</dim>
					<dim>128</dim>
				</port>
				<port id="1">
					<dim>1</dim>
					<dim>56</dim>
					<dim>1</dim>
					<dim>1</dim>
				</port>
			</input>
			<output>
				<port id="2" names="Conv__361:0" precision="FP32">
					<dim>1</dim>
					<dim>56</dim>
					<dim>128</dim>
					<dim>128</dim>
				</port>
			</output>
		</layer>
		<layer id="15" name="center_net_mobile_net_v2fpn_feature_extractor/model_1/model/Conv1_relu/Relu6_StatefulPartitionedCall/center_net_mobile_net_v2fpn_feature_extractor/model_1/model/Conv1_relu/Relu6_center_net_mobile_net_v2fpn_feature_extractor/model_1/model/bn_Conv1/FusedBatchNormV3_StatefulPartitionedCall/center_net_mobile_net_v2fpn_feature_extractor/model_1/model/bn_Conv1/FusedBatchNormV3_center_net_mobile_net_v2fpn_feature_extractor/model_1/model/Conv1/Conv2D_StatefulPartitionedCall/center_net_mobile_net_v2fpn_feature_extractor/model_1/model/Conv1/Conv2D_Add_Conv2D_Add/y" type="Clamp" version="opset1">
			<data max="6.0" min="0.0"/>
			<input>
				<port id="0">
					<dim>1</dim>
					<dim>56</dim>
					<dim>128</dim>
					<dim>128</dim>
				</port>
			</input>
			<output>
				<port id="1" names="center_net_mobile_net_v2fpn_feature_extractor/model_1/model/Conv1_relu/Relu6_StatefulPartitionedCall/center_net_mobile_net_v2fpn_feature_extractor/model_1/model/Conv1_relu/Relu6_center_net_mobile_net_v2fpn_feature_extractor/model_1/model/bn_Conv1/FusedBatchNormV3_StatefulPartitionedCall/center_net_mobile_net_v2fpn_feature_extractor/model_1/model/bn_Conv1/FusedBatchNormV3_center_net_mobile_net_v2fpn_feature_extractor/model_1/model/Conv1/Conv2D_StatefulPartitionedCall/center_net_mobile_net_v2fpn_feature_extractor/model_1/model/Conv1/Conv2D_Add_Conv2D_Add/y:0" precision="FP32">
					<dim>1</dim>
					<dim>56</dim>
					<dim>128</dim>
					<dim>128</dim>
				</port>
			</output>
		</layer>
		<layer id="16" name="2054120544_const" type="Const" version="opset1">
			<data element_type="f32" offset="6352" shape="56,1,1,3,3" size="2016"/>
			<output>
				<port id="0" names="const_fold_opt__478" precision="FP32">
					<dim>56</dim>
					<dim>1</dim>
					<dim>1</dim>
					<dim>3</dim>
					<dim>3</dim>
				</port>
			</output>
		</layer>
		<layer id="17" name="Conv__362/WithoutBiases" type="GroupConvolution" version="opset1">
			<data auto_pad="explicit" dilations="1,1" pads_begin="1,1" pads_end="1,1" strides="1,1"/>
			<input>
				<port id="0">
					<dim>1</dim>
					<dim>56</dim>
					<dim>128</dim>
					<dim>128</dim>
				</port>
				<port id="1">
					<dim>56</dim>
					<dim>1</dim>
					<dim>1</dim>
					<dim>3</dim>
					<dim>3</dim>
				</port>
			</input>
			<output>
				<port id="2" precision="FP32">
					<dim>1</dim>
					<dim>56</dim>
					<dim>128</dim>
					<dim>128</dim>
				</port>
			</output>
		</layer>
		<layer id="18" name="Conv__362/Dims50208830/EltwiseUnsqueeze9084_const" type="Const" version="opset1">
			<data element_type="f32" offset="8368" shape="1,56,1,1" size="224"/>
			<output>
				<port id="0" precision="FP32">
					<dim>1</dim>
					<dim>56</dim>
					<dim>1</dim>
					<dim>1</dim>
				</port>
			</output>
		</layer>
		<layer id="19" name="Conv__362" type="Add" version="opset1">
			<data auto_broadcast="numpy"/>
			<input>
				<port id="0">
					<dim>1</dim>
					<dim>56</dim>
					<dim>128</dim>
					<dim>128</dim>
				</port>
				<port id="1">
					<dim>1</dim>
					<dim>56</dim>
					<dim>1</dim>
					<dim>1</dim>
				</port>
			</input>
			<output>
				<port id="2" names="Conv__362:0" precision="FP32">
					<dim>1</dim>
					<dim>56</dim>
					<dim>128</dim>
					<dim>128</dim>
				</port>
			</output>
		</layer>
		<layer id="20" name="center_net_mobile_net_v2fpn_feature_extractor/model_1/model/expanded_conv_depthwise_relu/Relu6_StatefulPartitionedCall/center_net_mobile_net_v2fpn_feature_extractor/model_1/model/expanded_conv_depthwise_relu/Relu6_center_net_mobile_net_v2fpn_feature_extractor/model_1/model/expanded_conv_depthwise_BN/FusedBatchNormV3_StatefulPartitionedCall/center_net_mobile_net_v2fpn_feature_extractor/model_1/model/expanded_conv_depthwise_BN/FusedBatchNormV3_center_net_mobile_net_v2fpn_feature_extractor/model_1/model/Conv1/Conv2D_StatefulPartitionedCall/center_net_mobile_net_v2fpn_feature_extractor/model_1/model/Conv1/Conv2D_center_net_mobile_net_v2fpn_feature_extractor/model_1/model/expanded_conv_depthwise/depthwise_StatefulPartitionedCall/center_net_mobile_net_v2fpn_feature_extractor/model_1/model/expanded_conv_depthwise/depthwise_Add_1_Conv2D_depthwise_Add_1/y" type="Clamp" version="opset1">
			<data max="6.0" min="0.0"/>
			<input>
				<port id="0">
					<dim>1</dim>
					<dim>56</dim>
					<dim>128</dim>
					<dim>128</dim>
				</port>
			</input>
			<output>
				<port id="1" names="center_net_mobile_net_v2fpn_feature_extractor/model_1/model/expanded_conv_depthwise_relu/Relu6_StatefulPartitionedCall/center_net_mobile_net_v2fpn_feature_extractor/model_1/model/expanded_conv_depthwise_relu/Relu6_center_net_mobile_net_v2fpn_feature_extractor/model_1/model/expanded_conv_depthwise_BN/FusedBatchNormV3_StatefulPartitionedCall/center_net_mobile_net_v2fpn_feature_extractor/model_1/model/expanded_conv_depthwise_BN/FusedBatchNormV3_center_net_mobile_net_v2fpn_feature_extractor/model_1/model/Conv1/Conv2D_StatefulPartitionedCall/center_net_mobile_net_v2fpn_feature_extractor/model_1/model/Conv1/Conv2D_center_net_mobile_net_v2fpn_feature_extractor/model_1/model/expanded_conv_depthwise/depthwise_StatefulPartitionedCall/center_net_mobile_net_v2fpn_feature_extractor/model_1/model/expanded_conv_depthwise/depthwise_Add_1_Conv2D_depthwise_Add_1/y:0" precision="FP32">
					<dim>1</dim>
					<dim>56</dim>
					<dim>128</dim>
					<dim>128</dim>
				</port>
			</output>
		</layer>
		<layer id="21" name="Conv2D_1/filter:0/Output_0/Data__const" type="Const" version="opset1">
			<data element_type="f32" offset="8592" shape="32,56,1,1" size="7168"/>
			<output>
				<port id="0" names="Conv2D_1/filter:0" precision="FP32">
					<dim>32</dim>
					<dim>56</dim>
					<dim>1</dim>
					<dim>1</dim>
				</port>
			</output>
		</layer>
		<layer id="22" name="Conv__363/WithoutBiases" type="Convolution" version="opset1">
			<data auto_pad="explicit" dilations="1,1" pads_begin="0,0" pads_end="0,0" strides="1,1"/>
			<input>
				<port id="0">
					<dim>1</dim>
					<dim>56</dim>
					<dim>128</dim>
					<dim>128</dim>
				</port>
				<port id="1">
					<dim>32</dim>
					<dim>56</dim>
					<dim>1</dim>
					<dim>1</dim>
				</port>
			</input>
			<output>
				<port id="2" precision="FP32">
					<dim>1</dim>
					<dim>32</dim>
					<dim>128</dim>
					<dim>128</dim>
				</port>
			</output>
		</layer>
		<layer id="23" name="Conv__363/Dims49008810/EltwiseUnsqueeze9004_const" type="Const" version="opset1">
			<data element_type="f32" offset="15760" shape="1,32,1,1" size="128"/>
			<output>
				<port id="0" precision="FP32">
					<dim>1</dim>
					<dim>32</dim>
					<dim>1</dim>
					<dim>1</dim>
				</port>
			</output>
		</layer>
		<layer id="24" name="Conv__363" type="Add" version="opset1">
			<data auto_broadcast="numpy"/>
			<input>
				<port id="0">
					<dim>1</dim>
					<dim>32</dim>
					<dim>128</dim>
					<dim>128</dim>
				</port>
				<port id="1">
					<dim>1</dim>
					<dim>32</dim>
					<dim>1</dim>
					<dim>1</dim>
				</port>
			</input>
			<output>
				<port id="2" names="Conv__363:0" precision="FP32">
					<dim>1</dim>
					<dim>32</dim>
					<dim>128</dim>
					<dim>128</dim>
				</port>
			</output>
		</layer>
		<layer id="25" name="Conv2D_2/filter:0/Output_0/Data__const" type="Const" version="opset1">
			<data element_type="f32" offset="15888" shape="192,32,1,1" size="24576"/>
			<output>
				<port id="0" names="Conv2D_2/filter:0" precision="FP32">
					<dim>192</dim>
					<dim>32</dim>
					<dim>1</dim>
					<dim>1</dim>
				</port>
			</output>
		</layer>
		<layer id="26" name="Conv__364/WithoutBiases" type="Convolution" version="opset1">
			<data auto_pad="explicit" dilations="1,1" pads_begin="0,0" pads_end="0,0" strides="1,1"/>
			<input>
				<port id="0">
					<dim>1</dim>
					<dim>32</dim>
					<dim>128</dim>
					<dim>128</dim>
				</port>
				<port id="1">
					<dim>192</dim>
					<dim>32</dim>
					<dim>1</dim>
					<dim>1</dim>
				</port>
			</input>
			<output>
				<port id="2" precision="FP32">
					<dim>1</dim>
					<dim>192</dim>
					<dim>128</dim>
					<dim>128</dim>
				</port>
			</output>
		</layer>
		<layer id="27" name="Conv__364/Dims48108795/EltwiseUnsqueeze8944_const" type="Const" version="opset1">
			<data element_type="f32" offset="40464" shape="1,192,1,1" size="768"/>
			<output>
				<port id="0" precision="FP32">
					<dim>1</dim>
					<dim>192</dim>
					<dim>1</dim>
					<dim>1</dim>
				</port>
			</output>
		</layer>
		<layer id="28" name="Conv__364" type="Add" version="opset1">
			<data auto_broadcast="numpy"/>
			<input>
				<port id="0">
					<dim>1</dim>
					<dim>192</dim>
					<dim>128</dim>
					<dim>128</dim>
				</port>
				<port id="1">
					<dim>1</dim>
					<dim>192</dim>
					<dim>1</dim>
					<dim>1</dim>
				</port>
			</input>
			<output>
				<port id="2" names="Conv__364:0" precision="FP32">
					<dim>1</dim>
					<dim>192</dim>
					<dim>128</dim>
					<dim>128</dim>
				</port>
			</output>
		</layer>
		<layer id="29" name="center_net_mobile_net_v2fpn_feature_extractor/model_1/model/block_1_expand_relu/Relu6_StatefulPartitionedCall/center_net_mobile_net_v2fpn_feature_extractor/model_1/model/block_1_expand_relu/Relu6_center_net_mobile_net_v2fpn_feature_extractor/model_1/model/block_1_expand_BN/FusedBatchNormV3_StatefulPartitionedCall/center_net_mobile_net_v2fpn_feature_extractor/model_1/model/block_1_expand_BN/FusedBatchNormV3_center_net_mobile_net_v2fpn_feature_extractor/model_1/model/block_1_expand/Conv2D_StatefulPartitionedCall/center_net_mobile_net_v2fpn_feature_extractor/model_1/model/block_1_expand/Conv2D_Add_2_Conv2D_2_Add_2/y" type="Clamp" version="opset1">
			<data max="6.0" min="0.0"/>
			<input>
				<port id="0">
					<dim>1</dim>
					<dim>192</dim>
					<dim>128</dim>
					<dim>128</dim>
				</port>
			</input>
			<output>
				<port id="1" names="center_net_mobile_net_v2fpn_feature_extractor/model_1/model/block_1_expand_relu/Relu6_StatefulPartitionedCall/center_net_mobile_net_v2fpn_feature_extractor/model_1/model/block_1_expand_relu/Relu6_center_net_mobile_net_v2fpn_feature_extractor/model_1/model/block_1_expand_BN/FusedBatchNormV3_StatefulPartitionedCall/center_net_mobile_net_v2fpn_feature_extractor/model_1/model/block_1_expand_BN/FusedBatchNormV3_center_net_mobile_net_v2fpn_feature_extractor/model_1/model/block_1_expand/Conv2D_StatefulPartitionedCall/center_net_mobile_net_v2fpn_feature_extractor/model_1/model/block_1_expand/Conv2D_Add_2_Conv2D_2_Add_2/y:0" precision="FP32">
					<dim>1</dim>
					<dim>192</dim>
					<dim>128</dim>
					<dim>128</dim>
				</port>
			</output>
		</layer>
		<layer id="30" name="2049320496_const" type="Const" version="opset1">
			<data element_type="f32" offset="41232" shape="192,1,1,3,3" size="6912"/>
			<output>
				<port id="0" names="const_fold_opt__488" precision="FP32">
					<dim>192</dim>
					<dim>1</dim>
					<dim>1</dim>
					<dim>3</dim>
					<dim>3</dim>
				</port>
			</output>
		</layer>
		<layer id="31" name="Conv__365/WithoutBiases" type="GroupConvolution" version="opset1">
			<data auto_pad="explicit" dilations="1,1" pads_begin="0,0" pads_end="1,1" strides="2,2"/>
			<input>
				<port id="0">
					<dim>1</dim>
					<dim>192</dim>
					<dim>128</dim>
					<dim>128</dim>
				</port>
				<port id="1">
					<dim>192</dim>
					<dim>1</dim>
					<dim>1</dim>
					<dim>3</dim>
					<dim>3</dim>
				</port>
			</input>
			<output>
				<port id="2" precision="FP32">
					<dim>1</dim>
					<dim>192</dim>
					<dim>64</dim>
					<dim>64</dim>
				</port>
			</output>
		</layer>
		<layer id="32" name="Conv__365/Dims48288798/EltwiseUnsqueeze8956_const" type="Const" version="opset1">
			<data element_type="f32" offset="48144" shape="1,192,1,1" size="768"/>
			<output>
				<port id="0" precision="FP32">
					<dim>1</dim>
					<dim>192</dim>
					<dim>1</dim>
					<dim>1</dim>
				</port>
			</output>
		</layer>
		<layer id="33" name="Conv__365" type="Add" version="opset1">
			<data auto_broadcast="numpy"/>
			<input>
				<port id="0">
					<dim>1</dim>
					<dim>192</dim>
					<dim>64</dim>
					<dim>64</dim>
				</port>
				<port id="1">
					<dim>1</dim>
					<dim>192</dim>
					<dim>1</dim>
					<dim>1</dim>
				</port>
			</input>
			<output>
				<port id="2" names="Conv__365:0" precision="FP32">
					<dim>1</dim>
					<dim>192</dim>
					<dim>64</dim>
					<dim>64</dim>
				</port>
			</output>
		</layer>
		<layer id="34" name="center_net_mobile_net_v2fpn_feature_extractor/model_1/model/block_1_depthwise_relu/Relu6_StatefulPartitionedCall/center_net_mobile_net_v2fpn_feature_extractor/model_1/model/block_1_depthwise_relu/Relu6_center_net_mobile_net_v2fpn_feature_extractor/model_1/model/block_1_depthwise_BN/FusedBatchNormV3_StatefulPartitionedCall/center_net_mobile_net_v2fpn_feature_extractor/model_1/model/block_1_depthwise_BN/FusedBatchNormV3_center_net_mobile_net_v2fpn_feature_extractor/model_1/model/block_1_depthwise/depthwise_StatefulPartitionedCall/center_net_mobile_net_v2fpn_feature_extractor/model_1/model/block_1_depthwise/depthwise_center_net_mobile_net_v2fpn_feature_extractor/model_1/model/block_1_expand/Conv2D_StatefulPartitionedCall/center_net_mobile_net_v2fpn_feature_extractor/model_1/model/block_1_expand/Conv2D_Add_3_Conv2D_2_depthwise_1_Add_3/y" type="Clamp" version="opset1">
			<data max="6.0" min="0.0"/>
			<input>
				<port id="0">
					<dim>1</dim>
					<dim>192</dim>
					<dim>64</dim>
					<dim>64</dim>
				</port>
			</input>
			<output>
				<port id="1" names="center_net_mobile_net_v2fpn_feature_extractor/model_1/model/block_1_depthwise_relu/Relu6_StatefulPartitionedCall/center_net_mobile_net_v2fpn_feature_extractor/model_1/model/block_1_depthwise_relu/Relu6_center_net_mobile_net_v2fpn_feature_extractor/model_1/model/block_1_depthwise_BN/FusedBatchNormV3_StatefulPartitionedCall/center_net_mobile_net_v2fpn_feature_extractor/model_1/model/block_1_depthwise_BN/FusedBatchNormV3_center_net_mobile_net_v2fpn_feature_extractor/model_1/model/block_1_depthwise/depthwise_StatefulPartitionedCall/center_net_mobile_net_v2fpn_feature_extractor/model_1/model/block_1_depthwise/depthwise_center_net_mobile_net_v2fpn_feature_extractor/model_1/model/block_1_expand/Conv2D_StatefulPartitionedCall/center_net_mobile_net_v2fpn_feature_extractor/model_1/model/block_1_expand/Conv2D_Add_3_Conv2D_2_depthwise_1_Add_3/y:0" precision="FP32">
					<dim>1</dim>
					<dim>192</dim>
					<dim>64</dim>
					<dim>64</dim>
				</port>
			</output>
		</layer>
		<layer id="35" name="Conv2D_3/filter:0/Output_0/Data__const" type="Const" version="opset1">
			<data element_type="f32" offset="48912" shape="40,192,1,1" size="30720"/>
			<output>
				<port id="0" names="Conv2D_3/filter:0" precision="FP32">
					<dim>40</dim>
					<dim>192</dim>
					<dim>1</dim>
					<dim>1</dim>
				</port>
			</output>
		</layer>
		<layer id="36" name="Conv__366/WithoutBiases" type="Convolution" version="opset1">
			<data auto_pad="explicit" dilations="1,1" pads_begin="0,0" pads_end="0,0" strides="1,1"/>
			<input>
				<port id="0">
					<dim>1</dim>
					<dim>192</dim>
					<dim>64</dim>
					<dim>64</dim>
				</port>
				<port id="1">
					<dim>40</dim>
					<dim>192</dim>
					<dim>1</dim>
					<dim>1</dim>
				</port>
			</input>
			<output>
				<port id="2" precision="FP32">
					<dim>1</dim>
					<dim>40</dim>
					<dim>64</dim>
					<dim>64</dim>
				</port>
			</output>
		</layer>
		<layer id="37" name="Conv__366/Dims51348849/EltwiseUnsqueeze9160_const" type="Const" version="opset1">
			<data element_type="f32" offset="79632" shape="1,40,1,1" size="160"/>
			<output>
				<port id="0" precision="FP32">
					<dim>1</dim>
					<dim>40</dim>
					<dim>1</dim>
					<dim>1</dim>
				</port>
			</output>
		</layer>
		<layer id="38" name="Conv__366" type="Add" version="opset1">
			<data auto_broadcast="numpy"/>
			<input>
				<port id="0">
					<dim>1</dim>
					<dim>40</dim>
					<dim>64</dim>
					<dim>64</dim>
				</port>
				<port id="1">
					<dim>1</dim>
					<dim>40</dim>
					<dim>1</dim>
					<dim>1</dim>
				</port>
			</input>
			<output>
				<port id="2" names="Conv__366:0" precision="FP32">
					<dim>1</dim>
					<dim>40</dim>
					<dim>64</dim>
					<dim>64</dim>
				</port>
			</output>
		</layer>
		<layer id="39" name="Conv2D_4/filter:0/Output_0/Data__const" type="Const" version="opset1">
			<data element_type="f32" offset="79792" shape="240,40,1,1" size="38400"/>
			<output>
				<port id="0" names="Conv2D_4/filter:0" precision="FP32">
					<dim>240</dim>
					<dim>40</dim>
					<dim>1</dim>
					<dim>1</dim>
				</port>
			</output>
		</layer>
		<layer id="40" name="Conv__369/WithoutBiases" type="Convolution" version="opset1">
			<data auto_pad="explicit" dilations="1,1" pads_begin="0,0" pads_end="0,0" strides="1,1"/>
			<input>
				<port id="0">
					<dim>1</dim>
					<dim>40</dim>
					<dim>64</dim>
					<dim>64</dim>
				</port>
				<port id="1">
					<dim>240</dim>
					<dim>40</dim>
					<dim>1</dim>
					<dim>1</dim>
				</port>
			</input>
			<output>
				<port id="2" precision="FP32">
					<dim>1</dim>
					<dim>240</dim>
					<dim>64</dim>
					<dim>64</dim>
				</port>
			</output>
		</layer>
		<layer id="41" name="Conv__369/Dims47988793/EltwiseUnsqueeze8936_const" type="Const" version="opset1">
			<data element_type="f32" offset="118192" shape="1,240,1,1" size="960"/>
			<output>
				<port id="0" precision="FP32">
					<dim>1</dim>
					<dim>240</dim>
					<dim>1</dim>
					<dim>1</dim>
				</port>
			</output>
		</layer>
		<layer id="42" name="Conv__369" type="Add" version="opset1">
			<data auto_broadcast="numpy"/>
			<input>
				<port id="0">
					<dim>1</dim>
					<dim>240</dim>
					<dim>64</dim>
					<dim>64</dim>
				</port>
				<port id="1">
					<dim>1</dim>
					<dim>240</dim>
					<dim>1</dim>
					<dim>1</dim>
				</port>
			</input>
			<output>
				<port id="2" names="Conv__369:0" precision="FP32">
					<dim>1</dim>
					<dim>240</dim>
					<dim>64</dim>
					<dim>64</dim>
				</port>
			</output>
		</layer>
		<layer id="43" name="center_net_mobile_net_v2fpn_feature_extractor/model_1/model/block_2_expand_relu/Relu6_StatefulPartitionedCall/center_net_mobile_net_v2fpn_feature_extractor/model_1/model/block_2_expand_relu/Relu6_center_net_mobile_net_v2fpn_feature_extractor/model_1/model/block_2_expand_BN/FusedBatchNormV3_StatefulPartitionedCall/center_net_mobile_net_v2fpn_feature_extractor/model_1/model/block_2_expand_BN/FusedBatchNormV3_center_net_mobile_net_v2fpn_feature_extractor/model_1/model/block_2_expand/Conv2D_StatefulPartitionedCall/center_net_mobile_net_v2fpn_feature_extractor/model_1/model/block_2_expand/Conv2D_Add_4_Conv2D_4_Add_4/y" type="Clamp" version="opset1">
			<data max="6.0" min="0.0"/>
			<input>
				<port id="0">
					<dim>1</dim>
					<dim>240</dim>
					<dim>64</dim>
					<dim>64</dim>
				</port>
			</input>
			<output>
				<port id="1" names="center_net_mobile_net_v2fpn_feature_extractor/model_1/model/block_2_expand_relu/Relu6_StatefulPartitionedCall/center_net_mobile_net_v2fpn_feature_extractor/model_1/model/block_2_expand_relu/Relu6_center_net_mobile_net_v2fpn_feature_extractor/model_1/model/block_2_expand_BN/FusedBatchNormV3_StatefulPartitionedCall/center_net_mobile_net_v2fpn_feature_extractor/model_1/model/block_2_expand_BN/FusedBatchNormV3_center_net_mobile_net_v2fpn_feature_extractor/model_1/model/block_2_expand/Conv2D_StatefulPartitionedCall/center_net_mobile_net_v2fpn_feature_extractor/model_1/model/block_2_expand/Conv2D_Add_4_Conv2D_4_Add_4/y:0" precision="FP32">
					<dim>1</dim>
					<dim>240</dim>
					<dim>64</dim>
					<dim>64</dim>
				</port>
			</output>
		</layer>
		<layer id="44" name="2055720560_const" type="Const" version="opset1">
			<data element_type="f32" offset="119152" shape="240,1,1,3,3" size="8640"/>
			<output>
				<port id="0" names="const_fold_opt__473" precision="FP32">
					<dim>240</dim>
					<dim>1</dim>
					<dim>1</dim>
					<dim>3</dim>
					<dim>3</dim>
				</port>
			</output>
		</layer>
		<layer id="45" name="Conv__370/WithoutBiases" type="GroupConvolution" version="opset1">
			<data auto_pad="explicit" dilations="1,1" pads_begin="1,1" pads_end="1,1" strides="1,1"/>
			<input>
				<port id="0">
					<dim>1</dim>
					<dim>240</dim>
					<dim>64</dim>
					<dim>64</dim>
				</port>
				<port id="1">
					<dim>240</dim>
					<dim>1</dim>
					<dim>1</dim>
					<dim>3</dim>
					<dim>3</dim>
				</port>
			</input>
			<output>
				<port id="2" precision="FP32">
					<dim>1</dim>
					<dim>240</dim>
					<dim>64</dim>
					<dim>64</dim>
				</port>
			</output>
		</layer>
		<layer id="46" name="Conv__370/Dims50988843/EltwiseUnsqueeze9136_const" type="Const" version="opset1">
			<data element_type="f32" offset="127792" shape="1,240,1,1" size="960"/>
			<output>
				<port id="0" precision="FP32">
					<dim>1</dim>
					<dim>240</dim>
					<dim>1</dim>
					<dim>1</dim>
				</port>
			</output>
		</layer>
		<layer id="47" name="Conv__370" type="Add" version="opset1">
			<data auto_broadcast="numpy"/>
			<input>
				<port id="0">
					<dim>1</dim>
					<dim>240</dim>
					<dim>64</dim>
					<dim>64</dim>
				</port>
				<port id="1">
					<dim>1</dim>
					<dim>240</dim>
					<dim>1</dim>
					<dim>1</dim>
				</port>
			</input>
			<output>
				<port id="2" names="Conv__370:0" precision="FP32">
					<dim>1</dim>
					<dim>240</dim>
					<dim>64</dim>
					<dim>64</dim>
				</port>
			</output>
		</layer>
		<layer id="48" name="center_net_mobile_net_v2fpn_feature_extractor/model_1/model/block_2_depthwise_relu/Relu6_StatefulPartitionedCall/center_net_mobile_net_v2fpn_feature_extractor/model_1/model/block_2_depthwise_relu/Relu6_center_net_mobile_net_v2fpn_feature_extractor/model_1/model/block_2_depthwise_BN/FusedBatchNormV3_StatefulPartitionedCall/center_net_mobile_net_v2fpn_feature_extractor/model_1/model/block_2_depthwise_BN/FusedBatchNormV3_center_net_mobile_net_v2fpn_feature_extractor/model_1/model/block_2_expand/Conv2D_StatefulPartitionedCall/center_net_mobile_net_v2fpn_feature_extractor/model_1/model/block_2_expand/Conv2D_center_net_mobile_net_v2fpn_feature_extractor/model_1/model/block_2_depthwise/depthwise_StatefulPartitionedCall/center_net_mobile_net_v2fpn_feature_extractor/model_1/model/block_2_depthwise/depthwise_Add_5_Conv2D_4_depthwise_2_Add_5/y" type="Clamp" version="opset1">
			<data max="6.0" min="0.0"/>
			<input>
				<port id="0">
					<dim>1</dim>
					<dim>240</dim>
					<dim>64</dim>
					<dim>64</dim>
				</port>
			</input>
			<output>
				<port id="1" names="center_net_mobile_net_v2fpn_feature_extractor/model_1/model/block_2_depthwise_relu/Relu6_StatefulPartitionedCall/center_net_mobile_net_v2fpn_feature_extractor/model_1/model/block_2_depthwise_relu/Relu6_center_net_mobile_net_v2fpn_feature_extractor/model_1/model/block_2_depthwise_BN/FusedBatchNormV3_StatefulPartitionedCall/center_net_mobile_net_v2fpn_feature_extractor/model_1/model/block_2_depthwise_BN/FusedBatchNormV3_center_net_mobile_net_v2fpn_feature_extractor/model_1/model/block_2_expand/Conv2D_StatefulPartitionedCall/center_net_mobile_net_v2fpn_feature_extractor/model_1/model/block_2_expand/Conv2D_center_net_mobile_net_v2fpn_feature_extractor/model_1/model/block_2_depthwise/depthwise_StatefulPartitionedCall/center_net_mobile_net_v2fpn_feature_extractor/model_1/model/block_2_depthwise/depthwise_Add_5_Conv2D_4_depthwise_2_Add_5/y:0" precision="FP32">
					<dim>1</dim>
					<dim>240</dim>
					<dim>64</dim>
					<dim>64</dim>
				</port>
			</output>
		</layer>
		<layer id="49" name="Conv2D_5/filter:0/Output_0/Data__const" type="Const" version="opset1">
			<data element_type="f32" offset="128752" shape="40,240,1,1" size="38400"/>
			<output>
				<port id="0" names="Conv2D_5/filter:0" precision="FP32">
					<dim>40</dim>
					<dim>240</dim>
					<dim>1</dim>
					<dim>1</dim>
				</port>
			</output>
		</layer>
		<layer id="50" name="Conv__371/WithoutBiases" type="Convolution" version="opset1">
			<data auto_pad="explicit" dilations="1,1" pads_begin="0,0" pads_end="0,0" strides="1,1"/>
			<input>
				<port id="0">
					<dim>1</dim>
					<dim>240</dim>
					<dim>64</dim>
					<dim>64</dim>
				</port>
				<port id="1">
					<dim>40</dim>
					<dim>240</dim>
					<dim>1</dim>
					<dim>1</dim>
				</port>
			</input>
			<output>
				<port id="2" precision="FP32">
					<dim>1</dim>
					<dim>40</dim>
					<dim>64</dim>
					<dim>64</dim>
				</port>
			</output>
		</layer>
		<layer id="51" name="Conv__371/Dims48948809/EltwiseUnsqueeze9000_const" type="Const" version="opset1">
			<data element_type="f32" offset="167152" shape="1,40,1,1" size="160"/>
			<output>
				<port id="0" precision="FP32">
					<dim>1</dim>
					<dim>40</dim>
					<dim>1</dim>
					<dim>1</dim>
				</port>
			</output>
		</layer>
		<layer id="52" name="Conv__371" type="Add" version="opset1">
			<data auto_broadcast="numpy"/>
			<input>
				<port id="0">
					<dim>1</dim>
					<dim>40</dim>
					<dim>64</dim>
					<dim>64</dim>
				</port>
				<port id="1">
					<dim>1</dim>
					<dim>40</dim>
					<dim>1</dim>
					<dim>1</dim>
				</port>
			</input>
			<output>
				<port id="2" names="Conv__371:0" precision="FP32">
					<dim>1</dim>
					<dim>40</dim>
					<dim>64</dim>
					<dim>64</dim>
				</port>
			</output>
		</layer>
		<layer id="53" name="center_net_mobile_net_v2fpn_feature_extractor/model_1/model/block_2_add/add_StatefulPartitionedCall/center_net_mobile_net_v2fpn_feature_extractor/model_1/model/block_2_add/add" type="Add" version="opset1">
			<data auto_broadcast="numpy"/>
			<input>
				<port id="0">
					<dim>1</dim>
					<dim>40</dim>
					<dim>64</dim>
					<dim>64</dim>
				</port>
				<port id="1">
					<dim>1</dim>
					<dim>40</dim>
					<dim>64</dim>
					<dim>64</dim>
				</port>
			</input>
			<output>
				<port id="2" names="center_net_mobile_net_v2fpn_feature_extractor/model_1/model/block_2_add/add_StatefulPartitionedCall/center_net_mobile_net_v2fpn_feature_extractor/model_1/model/block_2_add/add:0" precision="FP32">
					<dim>1</dim>
					<dim>40</dim>
					<dim>64</dim>
					<dim>64</dim>
				</port>
			</output>
		</layer>
		<layer id="54" name="Conv2D_7/filter:0/Output_0/Data__const" type="Const" version="opset1">
			<data element_type="f32" offset="167312" shape="240,40,1,1" size="38400"/>
			<output>
				<port id="0" names="Conv2D_7/filter:0" precision="FP32">
					<dim>240</dim>
					<dim>40</dim>
					<dim>1</dim>
					<dim>1</dim>
				</port>
			</output>
		</layer>
		<layer id="55" name="Conv__372/WithoutBiases" type="Convolution" version="opset1">
			<data auto_pad="explicit" dilations="1,1" pads_begin="0,0" pads_end="0,0" strides="1,1"/>
			<input>
				<port id="0">
					<dim>1</dim>
					<dim>40</dim>
					<dim>64</dim>
					<dim>64</dim>
				</port>
				<port id="1">
					<dim>240</dim>
					<dim>40</dim>
					<dim>1</dim>
					<dim>1</dim>
				</port>
			</input>
			<output>
				<port id="2" precision="FP32">
					<dim>1</dim>
					<dim>240</dim>
					<dim>64</dim>
					<dim>64</dim>
				</port>
			</output>
		</layer>
		<layer id="56" name="Conv__372/Dims48768806/EltwiseUnsqueeze8988_const" type="Const" version="opset1">
			<data element_type="f32" offset="205712" shape="1,240,1,1" size="960"/>
			<output>
				<port id="0" precision="FP32">
					<dim>1</dim>
					<dim>240</dim>
					<dim>1</dim>
					<dim>1</dim>
				</port>
			</output>
		</layer>
		<layer id="57" name="Conv__372" type="Add" version="opset1">
			<data auto_broadcast="numpy"/>
			<input>
				<port id="0">
					<dim>1</dim>
					<dim>240</dim>
					<dim>64</dim>
					<dim>64</dim>
				</port>
				<port id="1">
					<dim>1</dim>
					<dim>240</dim>
					<dim>1</dim>
					<dim>1</dim>
				</port>
			</input>
			<output>
				<port id="2" names="Conv__372:0" precision="FP32">
					<dim>1</dim>
					<dim>240</dim>
					<dim>64</dim>
					<dim>64</dim>
				</port>
			</output>
		</layer>
		<layer id="58" name="center_net_mobile_net_v2fpn_feature_extractor/model_1/model/block_3_expand_relu/Relu6_StatefulPartitionedCall/center_net_mobile_net_v2fpn_feature_extractor/model_1/model/block_3_expand_relu/Relu6_center_net_mobile_net_v2fpn_feature_extractor/model_1/model/block_3_expand_BN/FusedBatchNormV3_StatefulPartitionedCall/center_net_mobile_net_v2fpn_feature_extractor/model_1/model/block_3_expand_BN/FusedBatchNormV3_center_net_mobile_net_v2fpn_feature_extractor/model_1/model/block_2_expand/Conv2D_StatefulPartitionedCall/center_net_mobile_net_v2fpn_feature_extractor/model_1/model/block_2_expand/Conv2D_center_net_mobile_net_v2fpn_feature_extractor/model_1/model/block_3_expand/Conv2D_StatefulPartitionedCall/center_net_mobile_net_v2fpn_feature_extractor/model_1/model/block_3_expand/Conv2D_Add_6_Conv2D_4_Conv2D_7_Add_6/y" type="Clamp" version="opset1">
			<data max="6.0" min="0.0"/>
			<input>
				<port id="0">
					<dim>1</dim>
					<dim>240</dim>
					<dim>64</dim>
					<dim>64</dim>
				</port>
			</input>
			<output>
				<port id="1" names="center_net_mobile_net_v2fpn_feature_extractor/model_1/model/block_3_expand_relu/Relu6_StatefulPartitionedCall/center_net_mobile_net_v2fpn_feature_extractor/model_1/model/block_3_expand_relu/Relu6_center_net_mobile_net_v2fpn_feature_extractor/model_1/model/block_3_expand_BN/FusedBatchNormV3_StatefulPartitionedCall/center_net_mobile_net_v2fpn_feature_extractor/model_1/model/block_3_expand_BN/FusedBatchNormV3_center_net_mobile_net_v2fpn_feature_extractor/model_1/model/block_2_expand/Conv2D_StatefulPartitionedCall/center_net_mobile_net_v2fpn_feature_extractor/model_1/model/block_2_expand/Conv2D_center_net_mobile_net_v2fpn_feature_extractor/model_1/model/block_3_expand/Conv2D_StatefulPartitionedCall/center_net_mobile_net_v2fpn_feature_extractor/model_1/model/block_3_expand/Conv2D_Add_6_Conv2D_4_Conv2D_7_Add_6/y:0" precision="FP32">
					<dim>1</dim>
					<dim>240</dim>
					<dim>64</dim>
					<dim>64</dim>
				</port>
			</output>
		</layer>
		<layer id="59" name="2050120504_const" type="Const" version="opset1">
			<data element_type="f32" offset="206672" shape="240,1,1,3,3" size="8640"/>
			<output>
				<port id="0" names="const_fold_opt__472" precision="FP32">
					<dim>240</dim>
					<dim>1</dim>
					<dim>1</dim>
					<dim>3</dim>
					<dim>3</dim>
				</port>
			</output>
		</layer>
		<layer id="60" name="Conv__373/WithoutBiases" type="GroupConvolution" version="opset1">
			<data auto_pad="explicit" dilations="1,1" pads_begin="0,0" pads_end="1,1" strides="2,2"/>
			<input>
				<port id="0">
					<dim>1</dim>
					<dim>240</dim>
					<dim>64</dim>
					<dim>64</dim>
				</port>
				<port id="1">
					<dim>240</dim>
					<dim>1</dim>
					<dim>1</dim>
					<dim>3</dim>
					<dim>3</dim>
				</port>
			</input>
			<output>
				<port id="2" precision="FP32">
					<dim>1</dim>
					<dim>240</dim>
					<dim>32</dim>
					<dim>32</dim>
				</port>
			</output>
		</layer>
		<layer id="61" name="Conv__373/Dims48588803/EltwiseUnsqueeze8976_const" type="Const" version="opset1">
			<data element_type="f32" offset="215312" shape="1,240,1,1" size="960"/>
			<output>
				<port id="0" precision="FP32">
					<dim>1</dim>
					<dim>240</dim>
					<dim>1</dim>
					<dim>1</dim>
				</port>
			</output>
		</layer>
		<layer id="62" name="Conv__373" type="Add" version="opset1">
			<data auto_broadcast="numpy"/>
			<input>
				<port id="0">
					<dim>1</dim>
					<dim>240</dim>
					<dim>32</dim>
					<dim>32</dim>
				</port>
				<port id="1">
					<dim>1</dim>
					<dim>240</dim>
					<dim>1</dim>
					<dim>1</dim>
				</port>
			</input>
			<output>
				<port id="2" names="Conv__373:0" precision="FP32">
					<dim>1</dim>
					<dim>240</dim>
					<dim>32</dim>
					<dim>32</dim>
				</port>
			</output>
		</layer>
		<layer id="63" name="center_net_mobile_net_v2fpn_feature_extractor/model_1/model/block_3_depthwise_relu/Relu6_StatefulPartitionedCall/center_net_mobile_net_v2fpn_feature_extractor/model_1/model/block_3_depthwise_relu/Relu6_center_net_mobile_net_v2fpn_feature_extractor/model_1/model/block_3_depthwise_BN/FusedBatchNormV3_StatefulPartitionedCall/center_net_mobile_net_v2fpn_feature_extractor/model_1/model/block_3_depthwise_BN/FusedBatchNormV3_center_net_mobile_net_v2fpn_feature_extractor/model_1/model/block_3_depthwise/depthwise_StatefulPartitionedCall/center_net_mobile_net_v2fpn_feature_extractor/model_1/model/block_3_depthwise/depthwise_center_net_mobile_net_v2fpn_feature_extractor/model_1/model/block_2_expand/Conv2D_StatefulPartitionedCall/center_net_mobile_net_v2fpn_feature_extractor/model_1/model/block_2_expand/Conv2D_Add_7_Conv2D_4_depthwise_3_Add_7/y" type="Clamp" version="opset1">
			<data max="6.0" min="0.0"/>
			<input>
				<port id="0">
					<dim>1</dim>
					<dim>240</dim>
					<dim>32</dim>
					<dim>32</dim>
				</port>
			</input>
			<output>
				<port id="1" names="center_net_mobile_net_v2fpn_feature_extractor/model_1/model/block_3_depthwise_relu/Relu6_StatefulPartitionedCall/center_net_mobile_net_v2fpn_feature_extractor/model_1/model/block_3_depthwise_relu/Relu6_center_net_mobile_net_v2fpn_feature_extractor/model_1/model/block_3_depthwise_BN/FusedBatchNormV3_StatefulPartitionedCall/center_net_mobile_net_v2fpn_feature_extractor/model_1/model/block_3_depthwise_BN/FusedBatchNormV3_center_net_mobile_net_v2fpn_feature_extractor/model_1/model/block_3_depthwise/depthwise_StatefulPartitionedCall/center_net_mobile_net_v2fpn_feature_extractor/model_1/model/block_3_depthwise/depthwise_center_net_mobile_net_v2fpn_feature_extractor/model_1/model/block_2_expand/Conv2D_StatefulPartitionedCall/center_net_mobile_net_v2fpn_feature_extractor/model_1/model/block_2_expand/Conv2D_Add_7_Conv2D_4_depthwise_3_Add_7/y:0" precision="FP32">
					<dim>1</dim>
					<dim>240</dim>
					<dim>32</dim>
					<dim>32</dim>
				</port>
			</output>
		</layer>
		<layer id="64" name="Conv2D_8/filter:0/Output_0/Data__const" type="Const" version="opset1">
			<data element_type="f32" offset="216272" shape="56,240,1,1" size="53760"/>
			<output>
				<port id="0" names="Conv2D_8/filter:0" precision="FP32">
					<dim>56</dim>
					<dim>240</dim>
					<dim>1</dim>
					<dim>1</dim>
				</port>
			</output>
		</layer>
		<layer id="65" name="Conv__374/WithoutBiases" type="Convolution" version="opset1">
			<data auto_pad="explicit" dilations="1,1" pads_begin="0,0" pads_end="0,0" strides="1,1"/>
			<input>
				<port id="0">
					<dim>1</dim>
					<dim>240</dim>
					<dim>32</dim>
					<dim>32</dim>
				</port>
				<port id="1">
					<dim>56</dim>
					<dim>240</dim>
					<dim>1</dim>
					<dim>1</dim>
				</port>
			</input>
			<output>
				<port id="2" precision="FP32">
					<dim>1</dim>
					<dim>56</dim>
					<dim>32</dim>
					<dim>32</dim>
				</port>
			</output>
		</layer>
		<layer id="66" name="Conv__374/Dims49668821/EltwiseUnsqueeze9048_const" type="Const" version="opset1">
			<data element_type="f32" offset="270032" shape="1,56,1,1" size="224"/>
			<output>
				<port id="0" precision="FP32">
					<dim>1</dim>
					<dim>56</dim>
					<dim>1</dim>
					<dim>1</dim>
				</port>
			</output>
		</layer>
		<layer id="67" name="Conv__374" type="Add" version="opset1">
			<data auto_broadcast="numpy"/>
			<input>
				<port id="0">
					<dim>1</dim>
					<dim>56</dim>
					<dim>32</dim>
					<dim>32</dim>
				</port>
				<port id="1">
					<dim>1</dim>
					<dim>56</dim>
					<dim>1</dim>
					<dim>1</dim>
				</port>
			</input>
			<output>
				<port id="2" names="Conv__374:0" precision="FP32">
					<dim>1</dim>
					<dim>56</dim>
					<dim>32</dim>
					<dim>32</dim>
				</port>
			</output>
		</layer>
		<layer id="68" name="Conv2D_9/filter:0/Output_0/Data__const" type="Const" version="opset1">
			<data element_type="f32" offset="270256" shape="336,56,1,1" size="75264"/>
			<output>
				<port id="0" names="Conv2D_9/filter:0" precision="FP32">
					<dim>336</dim>
					<dim>56</dim>
					<dim>1</dim>
					<dim>1</dim>
				</port>
			</output>
		</layer>
		<layer id="69" name="Conv__377/WithoutBiases" type="Convolution" version="opset1">
			<data auto_pad="explicit" dilations="1,1" pads_begin="0,0" pads_end="0,0" strides="1,1"/>
			<input>
				<port id="0">
					<dim>1</dim>
					<dim>56</dim>
					<dim>32</dim>
					<dim>32</dim>
				</port>
				<port id="1">
					<dim>336</dim>
					<dim>56</dim>
					<dim>1</dim>
					<dim>1</dim>
				</port>
			</input>
			<output>
				<port id="2" precision="FP32">
					<dim>1</dim>
					<dim>336</dim>
					<dim>32</dim>
					<dim>32</dim>
				</port>
			</output>
		</layer>
		<layer id="70" name="Conv__377/Dims49428817/EltwiseUnsqueeze9032_const" type="Const" version="opset1">
			<data element_type="f32" offset="345520" shape="1,336,1,1" size="1344"/>
			<output>
				<port id="0" precision="FP32">
					<dim>1</dim>
					<dim>336</dim>
					<dim>1</dim>
					<dim>1</dim>
				</port>
			</output>
		</layer>
		<layer id="71" name="Conv__377" type="Add" version="opset1">
			<data auto_broadcast="numpy"/>
			<input>
				<port id="0">
					<dim>1</dim>
					<dim>336</dim>
					<dim>32</dim>
					<dim>32</dim>
				</port>
				<port id="1">
					<dim>1</dim>
					<dim>336</dim>
					<dim>1</dim>
					<dim>1</dim>
				</port>
			</input>
			<output>
				<port id="2" names="Conv__377:0" precision="FP32">
					<dim>1</dim>
					<dim>336</dim>
					<dim>32</dim>
					<dim>32</dim>
				</port>
			</output>
		</layer>
		<layer id="72" name="center_net_mobile_net_v2fpn_feature_extractor/model_1/model/block_4_expand_relu/Relu6_StatefulPartitionedCall/center_net_mobile_net_v2fpn_feature_extractor/model_1/model/block_4_expand_relu/Relu6_center_net_mobile_net_v2fpn_feature_extractor/model_1/model/block_4_expand_BN/FusedBatchNormV3_StatefulPartitionedCall/center_net_mobile_net_v2fpn_feature_extractor/model_1/model/block_4_expand_BN/FusedBatchNormV3_center_net_mobile_net_v2fpn_feature_extractor/model_1/model/block_4_expand/Conv2D_StatefulPartitionedCall/center_net_mobile_net_v2fpn_feature_extractor/model_1/model/block_4_expand/Conv2D_Add_8_Conv2D_9_Add_8/y" type="Clamp" version="opset1">
			<data max="6.0" min="0.0"/>
			<input>
				<port id="0">
					<dim>1</dim>
					<dim>336</dim>
					<dim>32</dim>
					<dim>32</dim>
				</port>
			</input>
			<output>
				<port id="1" names="center_net_mobile_net_v2fpn_feature_extractor/model_1/model/block_4_expand_relu/Relu6_StatefulPartitionedCall/center_net_mobile_net_v2fpn_feature_extractor/model_1/model/block_4_expand_relu/Relu6_center_net_mobile_net_v2fpn_feature_extractor/model_1/model/block_4_expand_BN/FusedBatchNormV3_StatefulPartitionedCall/center_net_mobile_net_v2fpn_feature_extractor/model_1/model/block_4_expand_BN/FusedBatchNormV3_center_net_mobile_net_v2fpn_feature_extractor/model_1/model/block_4_expand/Conv2D_StatefulPartitionedCall/center_net_mobile_net_v2fpn_feature_extractor/model_1/model/block_4_expand/Conv2D_Add_8_Conv2D_9_Add_8/y:0" precision="FP32">
					<dim>1</dim>
					<dim>336</dim>
					<dim>32</dim>
					<dim>32</dim>
				</port>
			</output>
		</layer>
		<layer id="73" name="2056120564_const" type="Const" version="opset1">
			<data element_type="f32" offset="346864" shape="336,1,1,3,3" size="12096"/>
			<output>
				<port id="0" names="const_fold_opt__471" precision="FP32">
					<dim>336</dim>
					<dim>1</dim>
					<dim>1</dim>
					<dim>3</dim>
					<dim>3</dim>
				</port>
			</output>
		</layer>
		<layer id="74" name="Conv__378/WithoutBiases" type="GroupConvolution" version="opset1">
			<data auto_pad="explicit" dilations="1,1" pads_begin="1,1" pads_end="1,1" strides="1,1"/>
			<input>
				<port id="0">
					<dim>1</dim>
					<dim>336</dim>
					<dim>32</dim>
					<dim>32</dim>
				</port>
				<port id="1">
					<dim>336</dim>
					<dim>1</dim>
					<dim>1</dim>
					<dim>3</dim>
					<dim>3</dim>
				</port>
			</input>
			<output>
				<port id="2" precision="FP32">
					<dim>1</dim>
					<dim>336</dim>
					<dim>32</dim>
					<dim>32</dim>
				</port>
			</output>
		</layer>
		<layer id="75" name="Conv__378/Dims51108845/EltwiseUnsqueeze9144_const" type="Const" version="opset1">
			<data element_type="f32" offset="358960" shape="1,336,1,1" size="1344"/>
			<output>
				<port id="0" precision="FP32">
					<dim>1</dim>
					<dim>336</dim>
					<dim>1</dim>
					<dim>1</dim>
				</port>
			</output>
		</layer>
		<layer id="76" name="Conv__378" type="Add" version="opset1">
			<data auto_broadcast="numpy"/>
			<input>
				<port id="0">
					<dim>1</dim>
					<dim>336</dim>
					<dim>32</dim>
					<dim>32</dim>
				</port>
				<port id="1">
					<dim>1</dim>
					<dim>336</dim>
					<dim>1</dim>
					<dim>1</dim>
				</port>
			</input>
			<output>
				<port id="2" names="Conv__378:0" precision="FP32">
					<dim>1</dim>
					<dim>336</dim>
					<dim>32</dim>
					<dim>32</dim>
				</port>
			</output>
		</layer>
		<layer id="77" name="center_net_mobile_net_v2fpn_feature_extractor/model_1/model/block_4_depthwise_relu/Relu6_StatefulPartitionedCall/center_net_mobile_net_v2fpn_feature_extractor/model_1/model/block_4_depthwise_relu/Relu6_center_net_mobile_net_v2fpn_feature_extractor/model_1/model/block_4_depthwise_BN/FusedBatchNormV3_StatefulPartitionedCall/center_net_mobile_net_v2fpn_feature_extractor/model_1/model/block_4_depthwise_BN/FusedBatchNormV3_center_net_mobile_net_v2fpn_feature_extractor/model_1/model/block_4_expand/Conv2D_StatefulPartitionedCall/center_net_mobile_net_v2fpn_feature_extractor/model_1/model/block_4_expand/Conv2D_center_net_mobile_net_v2fpn_feature_extractor/model_1/model/block_4_depthwise/depthwise_StatefulPartitionedCall/center_net_mobile_net_v2fpn_feature_extractor/model_1/model/block_4_depthwise/depthwise_Add_9_Conv2D_9_depthwise_4_Add_9/y" type="Clamp" version="opset1">
			<data max="6.0" min="0.0"/>
			<input>
				<port id="0">
					<dim>1</dim>
					<dim>336</dim>
					<dim>32</dim>
					<dim>32</dim>
				</port>
			</input>
			<output>
				<port id="1" names="center_net_mobile_net_v2fpn_feature_extractor/model_1/model/block_4_depthwise_relu/Relu6_StatefulPartitionedCall/center_net_mobile_net_v2fpn_feature_extractor/model_1/model/block_4_depthwise_relu/Relu6_center_net_mobile_net_v2fpn_feature_extractor/model_1/model/block_4_depthwise_BN/FusedBatchNormV3_StatefulPartitionedCall/center_net_mobile_net_v2fpn_feature_extractor/model_1/model/block_4_depthwise_BN/FusedBatchNormV3_center_net_mobile_net_v2fpn_feature_extractor/model_1/model/block_4_expand/Conv2D_StatefulPartitionedCall/center_net_mobile_net_v2fpn_feature_extractor/model_1/model/block_4_expand/Conv2D_center_net_mobile_net_v2fpn_feature_extractor/model_1/model/block_4_depthwise/depthwise_StatefulPartitionedCall/center_net_mobile_net_v2fpn_feature_extractor/model_1/model/block_4_depthwise/depthwise_Add_9_Conv2D_9_depthwise_4_Add_9/y:0" precision="FP32">
					<dim>1</dim>
					<dim>336</dim>
					<dim>32</dim>
					<dim>32</dim>
				</port>
			</output>
		</layer>
		<layer id="78" name="Conv2D_10/filter:0/Output_0/Data__const" type="Const" version="opset1">
			<data element_type="f32" offset="360304" shape="56,336,1,1" size="75264"/>
			<output>
				<port id="0" names="Conv2D_10/filter:0" precision="FP32">
					<dim>56</dim>
					<dim>336</dim>
					<dim>1</dim>
					<dim>1</dim>
				</port>
			</output>
		</layer>
		<layer id="79" name="Conv__379/WithoutBiases" type="Convolution" version="opset1">
			<data auto_pad="explicit" dilations="1,1" pads_begin="0,0" pads_end="0,0" strides="1,1"/>
			<input>
				<port id="0">
					<dim>1</dim>
					<dim>336</dim>
					<dim>32</dim>
					<dim>32</dim>
				</port>
				<port id="1">
					<dim>56</dim>
					<dim>336</dim>
					<dim>1</dim>
					<dim>1</dim>
				</port>
			</input>
			<output>
				<port id="2" precision="FP32">
					<dim>1</dim>
					<dim>56</dim>
					<dim>32</dim>
					<dim>32</dim>
				</port>
			</output>
		</layer>
		<layer id="80" name="Conv__379/Dims50568836/EltwiseUnsqueeze9108_const" type="Const" version="opset1">
			<data element_type="f32" offset="435568" shape="1,56,1,1" size="224"/>
			<output>
				<port id="0" precision="FP32">
					<dim>1</dim>
					<dim>56</dim>
					<dim>1</dim>
					<dim>1</dim>
				</port>
			</output>
		</layer>
		<layer id="81" name="Conv__379" type="Add" version="opset1">
			<data auto_broadcast="numpy"/>
			<input>
				<port id="0">
					<dim>1</dim>
					<dim>56</dim>
					<dim>32</dim>
					<dim>32</dim>
				</port>
				<port id="1">
					<dim>1</dim>
					<dim>56</dim>
					<dim>1</dim>
					<dim>1</dim>
				</port>
			</input>
			<output>
				<port id="2" names="Conv__379:0" precision="FP32">
					<dim>1</dim>
					<dim>56</dim>
					<dim>32</dim>
					<dim>32</dim>
				</port>
			</output>
		</layer>
		<layer id="82" name="center_net_mobile_net_v2fpn_feature_extractor/model_1/model/block_4_add/add_StatefulPartitionedCall/center_net_mobile_net_v2fpn_feature_extractor/model_1/model/block_4_add/add" type="Add" version="opset1">
			<data auto_broadcast="numpy"/>
			<input>
				<port id="0">
					<dim>1</dim>
					<dim>56</dim>
					<dim>32</dim>
					<dim>32</dim>
				</port>
				<port id="1">
					<dim>1</dim>
					<dim>56</dim>
					<dim>32</dim>
					<dim>32</dim>
				</port>
			</input>
			<output>
				<port id="2" names="center_net_mobile_net_v2fpn_feature_extractor/model_1/model/block_4_add/add_StatefulPartitionedCall/center_net_mobile_net_v2fpn_feature_extractor/model_1/model/block_4_add/add:0" precision="FP32">
					<dim>1</dim>
					<dim>56</dim>
					<dim>32</dim>
					<dim>32</dim>
				</port>
			</output>
		</layer>
		<layer id="83" name="Conv2D_11/filter:0/Output_0/Data__const" type="Const" version="opset1">
			<data element_type="f32" offset="435792" shape="336,56,1,1" size="75264"/>
			<output>
				<port id="0" names="Conv2D_11/filter:0" precision="FP32">
					<dim>336</dim>
					<dim>56</dim>
					<dim>1</dim>
					<dim>1</dim>
				</port>
			</output>
		</layer>
		<layer id="84" name="Conv__382/WithoutBiases" type="Convolution" version="opset1">
			<data auto_pad="explicit" dilations="1,1" pads_begin="0,0" pads_end="0,0" strides="1,1"/>
			<input>
				<port id="0">
					<dim>1</dim>
					<dim>56</dim>
					<dim>32</dim>
					<dim>32</dim>
				</port>
				<port id="1">
					<dim>336</dim>
					<dim>56</dim>
					<dim>1</dim>
					<dim>1</dim>
				</port>
			</input>
			<output>
				<port id="2" precision="FP32">
					<dim>1</dim>
					<dim>336</dim>
					<dim>32</dim>
					<dim>32</dim>
				</port>
			</output>
		</layer>
		<layer id="85" name="Conv__382/Dims49188813/EltwiseUnsqueeze9016_const" type="Const" version="opset1">
			<data element_type="f32" offset="511056" shape="1,336,1,1" size="1344"/>
			<output>
				<port id="0" precision="FP32">
					<dim>1</dim>
					<dim>336</dim>
					<dim>1</dim>
					<dim>1</dim>
				</port>
			</output>
		</layer>
		<layer id="86" name="Conv__382" type="Add" version="opset1">
			<data auto_broadcast="numpy"/>
			<input>
				<port id="0">
					<dim>1</dim>
					<dim>336</dim>
					<dim>32</dim>
					<dim>32</dim>
				</port>
				<port id="1">
					<dim>1</dim>
					<dim>336</dim>
					<dim>1</dim>
					<dim>1</dim>
				</port>
			</input>
			<output>
				<port id="2" names="Conv__382:0" precision="FP32">
					<dim>1</dim>
					<dim>336</dim>
					<dim>32</dim>
					<dim>32</dim>
				</port>
			</output>
		</layer>
		<layer id="87" name="center_net_mobile_net_v2fpn_feature_extractor/model_1/model/block_5_expand_relu/Relu6_StatefulPartitionedCall/center_net_mobile_net_v2fpn_feature_extractor/model_1/model/block_5_expand_relu/Relu6_center_net_mobile_net_v2fpn_feature_extractor/model_1/model/block_5_expand_BN/FusedBatchNormV3_StatefulPartitionedCall/center_net_mobile_net_v2fpn_feature_extractor/model_1/model/block_5_expand_BN/FusedBatchNormV3_center_net_mobile_net_v2fpn_feature_extractor/model_1/model/block_4_expand/Conv2D_StatefulPartitionedCall/center_net_mobile_net_v2fpn_feature_extractor/model_1/model/block_4_expand/Conv2D_center_net_mobile_net_v2fpn_feature_extractor/model_1/model/block_5_expand/Conv2D_StatefulPartitionedCall/center_net_mobile_net_v2fpn_feature_extractor/model_1/model/block_5_expand/Conv2D_Add_10_Conv2D_9_Conv2D_11_Add_10/y" type="Clamp" version="opset1">
			<data max="6.0" min="0.0"/>
			<input>
				<port id="0">
					<dim>1</dim>
					<dim>336</dim>
					<dim>32</dim>
					<dim>32</dim>
				</port>
			</input>
			<output>
				<port id="1" names="center_net_mobile_net_v2fpn_feature_extractor/model_1/model/block_5_expand_relu/Relu6_StatefulPartitionedCall/center_net_mobile_net_v2fpn_feature_extractor/model_1/model/block_5_expand_relu/Relu6_center_net_mobile_net_v2fpn_feature_extractor/model_1/model/block_5_expand_BN/FusedBatchNormV3_StatefulPartitionedCall/center_net_mobile_net_v2fpn_feature_extractor/model_1/model/block_5_expand_BN/FusedBatchNormV3_center_net_mobile_net_v2fpn_feature_extractor/model_1/model/block_4_expand/Conv2D_StatefulPartitionedCall/center_net_mobile_net_v2fpn_feature_extractor/model_1/model/block_4_expand/Conv2D_center_net_mobile_net_v2fpn_feature_extractor/model_1/model/block_5_expand/Conv2D_StatefulPartitionedCall/center_net_mobile_net_v2fpn_feature_extractor/model_1/model/block_5_expand/Conv2D_Add_10_Conv2D_9_Conv2D_11_Add_10/y:0" precision="FP32">
					<dim>1</dim>
					<dim>336</dim>
					<dim>32</dim>
					<dim>32</dim>
				</port>
			</output>
		</layer>
		<layer id="88" name="2053720540_const" type="Const" version="opset1">
			<data element_type="f32" offset="512400" shape="336,1,1,3,3" size="12096"/>
			<output>
				<port id="0" names="const_fold_opt__469" precision="FP32">
					<dim>336</dim>
					<dim>1</dim>
					<dim>1</dim>
					<dim>3</dim>
					<dim>3</dim>
				</port>
			</output>
		</layer>
		<layer id="89" name="Conv__383/WithoutBiases" type="GroupConvolution" version="opset1">
			<data auto_pad="explicit" dilations="1,1" pads_begin="1,1" pads_end="1,1" strides="1,1"/>
			<input>
				<port id="0">
					<dim>1</dim>
					<dim>336</dim>
					<dim>32</dim>
					<dim>32</dim>
				</port>
				<port id="1">
					<dim>336</dim>
					<dim>1</dim>
					<dim>1</dim>
					<dim>3</dim>
					<dim>3</dim>
				</port>
			</input>
			<output>
				<port id="2" precision="FP32">
					<dim>1</dim>
					<dim>336</dim>
					<dim>32</dim>
					<dim>32</dim>
				</port>
			</output>
		</layer>
		<layer id="90" name="Conv__383/Dims49908825/EltwiseUnsqueeze9064_const" type="Const" version="opset1">
			<data element_type="f32" offset="524496" shape="1,336,1,1" size="1344"/>
			<output>
				<port id="0" precision="FP32">
					<dim>1</dim>
					<dim>336</dim>
					<dim>1</dim>
					<dim>1</dim>
				</port>
			</output>
		</layer>
		<layer id="91" name="Conv__383" type="Add" version="opset1">
			<data auto_broadcast="numpy"/>
			<input>
				<port id="0">
					<dim>1</dim>
					<dim>336</dim>
					<dim>32</dim>
					<dim>32</dim>
				</port>
				<port id="1">
					<dim>1</dim>
					<dim>336</dim>
					<dim>1</dim>
					<dim>1</dim>
				</port>
			</input>
			<output>
				<port id="2" names="Conv__383:0" precision="FP32">
					<dim>1</dim>
					<dim>336</dim>
					<dim>32</dim>
					<dim>32</dim>
				</port>
			</output>
		</layer>
		<layer id="92" name="center_net_mobile_net_v2fpn_feature_extractor/model_1/model/block_5_depthwise_relu/Relu6_StatefulPartitionedCall/center_net_mobile_net_v2fpn_feature_extractor/model_1/model/block_5_depthwise_relu/Relu6_center_net_mobile_net_v2fpn_feature_extractor/model_1/model/block_5_depthwise_BN/FusedBatchNormV3_StatefulPartitionedCall/center_net_mobile_net_v2fpn_feature_extractor/model_1/model/block_5_depthwise_BN/FusedBatchNormV3_center_net_mobile_net_v2fpn_feature_extractor/model_1/model/block_4_expand/Conv2D_StatefulPartitionedCall/center_net_mobile_net_v2fpn_feature_extractor/model_1/model/block_4_expand/Conv2D_center_net_mobile_net_v2fpn_feature_extractor/model_1/model/block_5_depthwise/depthwise_StatefulPartitionedCall/center_net_mobile_net_v2fpn_feature_extractor/model_1/model/block_5_depthwise/depthwise_Add_11_Conv2D_9_depthwise_5_Add_11/y" type="Clamp" version="opset1">
			<data max="6.0" min="0.0"/>
			<input>
				<port id="0">
					<dim>1</dim>
					<dim>336</dim>
					<dim>32</dim>
					<dim>32</dim>
				</port>
			</input>
			<output>
				<port id="1" names="center_net_mobile_net_v2fpn_feature_extractor/model_1/model/block_5_depthwise_relu/Relu6_StatefulPartitionedCall/center_net_mobile_net_v2fpn_feature_extractor/model_1/model/block_5_depthwise_relu/Relu6_center_net_mobile_net_v2fpn_feature_extractor/model_1/model/block_5_depthwise_BN/FusedBatchNormV3_StatefulPartitionedCall/center_net_mobile_net_v2fpn_feature_extractor/model_1/model/block_5_depthwise_BN/FusedBatchNormV3_center_net_mobile_net_v2fpn_feature_extractor/model_1/model/block_4_expand/Conv2D_StatefulPartitionedCall/center_net_mobile_net_v2fpn_feature_extractor/model_1/model/block_4_expand/Conv2D_center_net_mobile_net_v2fpn_feature_extractor/model_1/model/block_5_depthwise/depthwise_StatefulPartitionedCall/center_net_mobile_net_v2fpn_feature_extractor/model_1/model/block_5_depthwise/depthwise_Add_11_Conv2D_9_depthwise_5_Add_11/y:0" precision="FP32">
					<dim>1</dim>
					<dim>336</dim>
					<dim>32</dim>
					<dim>32</dim>
				</port>
			</output>
		</layer>
		<layer id="93" name="Conv2D_12/filter:0/Output_0/Data__const" type="Const" version="opset1">
			<data element_type="f32" offset="525840" shape="56,336,1,1" size="75264"/>
			<output>
				<port id="0" names="Conv2D_12/filter:0" precision="FP32">
					<dim>56</dim>
					<dim>336</dim>
					<dim>1</dim>
					<dim>1</dim>
				</port>
			</output>
		</layer>
		<layer id="94" name="Conv__384/WithoutBiases" type="Convolution" version="opset1">
			<data auto_pad="explicit" dilations="1,1" pads_begin="0,0" pads_end="0,0" strides="1,1"/>
			<input>
				<port id="0">
					<dim>1</dim>
					<dim>336</dim>
					<dim>32</dim>
					<dim>32</dim>
				</port>
				<port id="1">
					<dim>56</dim>
					<dim>336</dim>
					<dim>1</dim>
					<dim>1</dim>
				</port>
			</input>
			<output>
				<port id="2" precision="FP32">
					<dim>1</dim>
					<dim>56</dim>
					<dim>32</dim>
					<dim>32</dim>
				</port>
			</output>
		</layer>
		<layer id="95" name="Conv__384/Dims50748839/EltwiseUnsqueeze9120_const" type="Const" version="opset1">
			<data element_type="f32" offset="601104" shape="1,56,1,1" size="224"/>
			<output>
				<port id="0" precision="FP32">
					<dim>1</dim>
					<dim>56</dim>
					<dim>1</dim>
					<dim>1</dim>
				</port>
			</output>
		</layer>
		<layer id="96" name="Conv__384" type="Add" version="opset1">
			<data auto_broadcast="numpy"/>
			<input>
				<port id="0">
					<dim>1</dim>
					<dim>56</dim>
					<dim>32</dim>
					<dim>32</dim>
				</port>
				<port id="1">
					<dim>1</dim>
					<dim>56</dim>
					<dim>1</dim>
					<dim>1</dim>
				</port>
			</input>
			<output>
				<port id="2" names="Conv__384:0" precision="FP32">
					<dim>1</dim>
					<dim>56</dim>
					<dim>32</dim>
					<dim>32</dim>
				</port>
			</output>
		</layer>
		<layer id="97" name="center_net_mobile_net_v2fpn_feature_extractor/model_1/model/block_5_add/add_StatefulPartitionedCall/center_net_mobile_net_v2fpn_feature_extractor/model_1/model/block_5_add/add" type="Add" version="opset1">
			<data auto_broadcast="numpy"/>
			<input>
				<port id="0">
					<dim>1</dim>
					<dim>56</dim>
					<dim>32</dim>
					<dim>32</dim>
				</port>
				<port id="1">
					<dim>1</dim>
					<dim>56</dim>
					<dim>32</dim>
					<dim>32</dim>
				</port>
			</input>
			<output>
				<port id="2" names="center_net_mobile_net_v2fpn_feature_extractor/model_1/model/block_5_add/add_StatefulPartitionedCall/center_net_mobile_net_v2fpn_feature_extractor/model_1/model/block_5_add/add:0" precision="FP32">
					<dim>1</dim>
					<dim>56</dim>
					<dim>32</dim>
					<dim>32</dim>
				</port>
			</output>
		</layer>
		<layer id="98" name="Conv2D_14/filter:0/Output_0/Data__const" type="Const" version="opset1">
			<data element_type="f32" offset="601328" shape="336,56,1,1" size="75264"/>
			<output>
				<port id="0" names="Conv2D_14/filter:0" precision="FP32">
					<dim>336</dim>
					<dim>56</dim>
					<dim>1</dim>
					<dim>1</dim>
				</port>
			</output>
		</layer>
		<layer id="99" name="Conv__385/WithoutBiases" type="Convolution" version="opset1">
			<data auto_pad="explicit" dilations="1,1" pads_begin="0,0" pads_end="0,0" strides="1,1"/>
			<input>
				<port id="0">
					<dim>1</dim>
					<dim>56</dim>
					<dim>32</dim>
					<dim>32</dim>
				</port>
				<port id="1">
					<dim>336</dim>
					<dim>56</dim>
					<dim>1</dim>
					<dim>1</dim>
				</port>
			</input>
			<output>
				<port id="2" precision="FP32">
					<dim>1</dim>
					<dim>336</dim>
					<dim>32</dim>
					<dim>32</dim>
				</port>
			</output>
		</layer>
		<layer id="100" name="Conv__385/Dims47508785/EltwiseUnsqueeze8904_const" type="Const" version="opset1">
			<data element_type="f32" offset="676592" shape="1,336,1,1" size="1344"/>
			<output>
				<port id="0" precision="FP32">
					<dim>1</dim>
					<dim>336</dim>
					<dim>1</dim>
					<dim>1</dim>
				</port>
			</output>
		</layer>
		<layer id="101" name="Conv__385" type="Add" version="opset1">
			<data auto_broadcast="numpy"/>
			<input>
				<port id="0">
					<dim>1</dim>
					<dim>336</dim>
					<dim>32</dim>
					<dim>32</dim>
				</port>
				<port id="1">
					<dim>1</dim>
					<dim>336</dim>
					<dim>1</dim>
					<dim>1</dim>
				</port>
			</input>
			<output>
				<port id="2" names="Conv__385:0" precision="FP32">
					<dim>1</dim>
					<dim>336</dim>
					<dim>32</dim>
					<dim>32</dim>
				</port>
			</output>
		</layer>
		<layer id="102" name="center_net_mobile_net_v2fpn_feature_extractor/model_1/model/block_6_expand_relu/Relu6_StatefulPartitionedCall/center_net_mobile_net_v2fpn_feature_extractor/model_1/model/block_6_expand_relu/Relu6_center_net_mobile_net_v2fpn_feature_extractor/model_1/model/block_6_expand_BN/FusedBatchNormV3_StatefulPartitionedCall/center_net_mobile_net_v2fpn_feature_extractor/model_1/model/block_6_expand_BN/FusedBatchNormV3_center_net_mobile_net_v2fpn_feature_extractor/model_1/model/block_4_expand/Conv2D_StatefulPartitionedCall/center_net_mobile_net_v2fpn_feature_extractor/model_1/model/block_4_expand/Conv2D_center_net_mobile_net_v2fpn_feature_extractor/model_1/model/block_6_expand/Conv2D_StatefulPartitionedCall/center_net_mobile_net_v2fpn_feature_extractor/model_1/model/block_6_expand/Conv2D_Add_12_Conv2D_9_Conv2D_14_Add_12/y" type="Clamp" version="opset1">
			<data max="6.0" min="0.0"/>
			<input>
				<port id="0">
					<dim>1</dim>
					<dim>336</dim>
					<dim>32</dim>
					<dim>32</dim>
				</port>
			</input>
			<output>
				<port id="1" names="center_net_mobile_net_v2fpn_feature_extractor/model_1/model/block_6_expand_relu/Relu6_StatefulPartitionedCall/center_net_mobile_net_v2fpn_feature_extractor/model_1/model/block_6_expand_relu/Relu6_center_net_mobile_net_v2fpn_feature_extractor/model_1/model/block_6_expand_BN/FusedBatchNormV3_StatefulPartitionedCall/center_net_mobile_net_v2fpn_feature_extractor/model_1/model/block_6_expand_BN/FusedBatchNormV3_center_net_mobile_net_v2fpn_feature_extractor/model_1/model/block_4_expand/Conv2D_StatefulPartitionedCall/center_net_mobile_net_v2fpn_feature_extractor/model_1/model/block_4_expand/Conv2D_center_net_mobile_net_v2fpn_feature_extractor/model_1/model/block_6_expand/Conv2D_StatefulPartitionedCall/center_net_mobile_net_v2fpn_feature_extractor/model_1/model/block_6_expand/Conv2D_Add_12_Conv2D_9_Conv2D_14_Add_12/y:0" precision="FP32">
					<dim>1</dim>
					<dim>336</dim>
					<dim>32</dim>
					<dim>32</dim>
				</port>
			</output>
		</layer>
		<layer id="103" name="2051720520_const" type="Const" version="opset1">
			<data element_type="f32" offset="677936" shape="336,1,1,3,3" size="12096"/>
			<output>
				<port id="0" names="const_fold_opt__493" precision="FP32">
					<dim>336</dim>
					<dim>1</dim>
					<dim>1</dim>
					<dim>3</dim>
					<dim>3</dim>
				</port>
			</output>
		</layer>
		<layer id="104" name="Conv__386/WithoutBiases" type="GroupConvolution" version="opset1">
			<data auto_pad="explicit" dilations="1,1" pads_begin="0,0" pads_end="1,1" strides="2,2"/>
			<input>
				<port id="0">
					<dim>1</dim>
					<dim>336</dim>
					<dim>32</dim>
					<dim>32</dim>
				</port>
				<port id="1">
					<dim>336</dim>
					<dim>1</dim>
					<dim>1</dim>
					<dim>3</dim>
					<dim>3</dim>
				</port>
			</input>
			<output>
				<port id="2" precision="FP32">
					<dim>1</dim>
					<dim>336</dim>
					<dim>16</dim>
					<dim>16</dim>
				</port>
			</output>
		</layer>
		<layer id="105" name="Conv__386/Dims49308815/EltwiseUnsqueeze9024_const" type="Const" version="opset1">
			<data element_type="f32" offset="690032" shape="1,336,1,1" size="1344"/>
			<output>
				<port id="0" precision="FP32">
					<dim>1</dim>
					<dim>336</dim>
					<dim>1</dim>
					<dim>1</dim>
				</port>
			</output>
		</layer>
		<layer id="106" name="Conv__386" type="Add" version="opset1">
			<data auto_broadcast="numpy"/>
			<input>
				<port id="0">
					<dim>1</dim>
					<dim>336</dim>
					<dim>16</dim>
					<dim>16</dim>
				</port>
				<port id="1">
					<dim>1</dim>
					<dim>336</dim>
					<dim>1</dim>
					<dim>1</dim>
				</port>
			</input>
			<output>
				<port id="2" names="Conv__386:0" precision="FP32">
					<dim>1</dim>
					<dim>336</dim>
					<dim>16</dim>
					<dim>16</dim>
				</port>
			</output>
		</layer>
		<layer id="107" name="center_net_mobile_net_v2fpn_feature_extractor/model_1/model/block_6_depthwise_relu/Relu6_StatefulPartitionedCall/center_net_mobile_net_v2fpn_feature_extractor/model_1/model/block_6_depthwise_relu/Relu6_center_net_mobile_net_v2fpn_feature_extractor/model_1/model/block_6_depthwise_BN/FusedBatchNormV3_StatefulPartitionedCall/center_net_mobile_net_v2fpn_feature_extractor/model_1/model/block_6_depthwise_BN/FusedBatchNormV3_center_net_mobile_net_v2fpn_feature_extractor/model_1/model/block_6_depthwise/depthwise_StatefulPartitionedCall/center_net_mobile_net_v2fpn_feature_extractor/model_1/model/block_6_depthwise/depthwise_center_net_mobile_net_v2fpn_feature_extractor/model_1/model/block_4_expand/Conv2D_StatefulPartitionedCall/center_net_mobile_net_v2fpn_feature_extractor/model_1/model/block_4_expand/Conv2D_Add_13_Conv2D_9_depthwise_6_Add_13/y" type="Clamp" version="opset1">
			<data max="6.0" min="0.0"/>
			<input>
				<port id="0">
					<dim>1</dim>
					<dim>336</dim>
					<dim>16</dim>
					<dim>16</dim>
				</port>
			</input>
			<output>
				<port id="1" names="center_net_mobile_net_v2fpn_feature_extractor/model_1/model/block_6_depthwise_relu/Relu6_StatefulPartitionedCall/center_net_mobile_net_v2fpn_feature_extractor/model_1/model/block_6_depthwise_relu/Relu6_center_net_mobile_net_v2fpn_feature_extractor/model_1/model/block_6_depthwise_BN/FusedBatchNormV3_StatefulPartitionedCall/center_net_mobile_net_v2fpn_feature_extractor/model_1/model/block_6_depthwise_BN/FusedBatchNormV3_center_net_mobile_net_v2fpn_feature_extractor/model_1/model/block_6_depthwise/depthwise_StatefulPartitionedCall/center_net_mobile_net_v2fpn_feature_extractor/model_1/model/block_6_depthwise/depthwise_center_net_mobile_net_v2fpn_feature_extractor/model_1/model/block_4_expand/Conv2D_StatefulPartitionedCall/center_net_mobile_net_v2fpn_feature_extractor/model_1/model/block_4_expand/Conv2D_Add_13_Conv2D_9_depthwise_6_Add_13/y:0" precision="FP32">
					<dim>1</dim>
					<dim>336</dim>
					<dim>16</dim>
					<dim>16</dim>
				</port>
			</output>
		</layer>
		<layer id="108" name="Conv2D_15/filter:0/Output_0/Data__const" type="Const" version="opset1">
			<data element_type="f32" offset="691376" shape="112,336,1,1" size="150528"/>
			<output>
				<port id="0" names="Conv2D_15/filter:0" precision="FP32">
					<dim>112</dim>
					<dim>336</dim>
					<dim>1</dim>
					<dim>1</dim>
				</port>
			</output>
		</layer>
		<layer id="109" name="Conv__387/WithoutBiases" type="Convolution" version="opset1">
			<data auto_pad="explicit" dilations="1,1" pads_begin="0,0" pads_end="0,0" strides="1,1"/>
			<input>
				<port id="0">
					<dim>1</dim>
					<dim>336</dim>
					<dim>16</dim>
					<dim>16</dim>
				</port>
				<port id="1">
					<dim>112</dim>
					<dim>336</dim>
					<dim>1</dim>
					<dim>1</dim>
				</port>
			</input>
			<output>
				<port id="2" precision="FP32">
					<dim>1</dim>
					<dim>112</dim>
					<dim>16</dim>
					<dim>16</dim>
				</port>
			</output>
		</layer>
		<layer id="110" name="Conv__387/Dims50928842/EltwiseUnsqueeze9132_const" type="Const" version="opset1">
			<data element_type="f32" offset="841904" shape="1,112,1,1" size="448"/>
			<output>
				<port id="0" precision="FP32">
					<dim>1</dim>
					<dim>112</dim>
					<dim>1</dim>
					<dim>1</dim>
				</port>
			</output>
		</layer>
		<layer id="111" name="Conv__387" type="Add" version="opset1">
			<data auto_broadcast="numpy"/>
			<input>
				<port id="0">
					<dim>1</dim>
					<dim>112</dim>
					<dim>16</dim>
					<dim>16</dim>
				</port>
				<port id="1">
					<dim>1</dim>
					<dim>112</dim>
					<dim>1</dim>
					<dim>1</dim>
				</port>
			</input>
			<output>
				<port id="2" names="Conv__387:0" precision="FP32">
					<dim>1</dim>
					<dim>112</dim>
					<dim>16</dim>
					<dim>16</dim>
				</port>
			</output>
		</layer>
		<layer id="112" name="Conv2D_16/filter:0/Output_0/Data__const" type="Const" version="opset1">
			<data element_type="f32" offset="842352" shape="672,112,1,1" size="301056"/>
			<output>
				<port id="0" names="Conv2D_16/filter:0" precision="FP32">
					<dim>672</dim>
					<dim>112</dim>
					<dim>1</dim>
					<dim>1</dim>
				</port>
			</output>
		</layer>
		<layer id="113" name="Conv__390/WithoutBiases" type="Convolution" version="opset1">
			<data auto_pad="explicit" dilations="1,1" pads_begin="0,0" pads_end="0,0" strides="1,1"/>
			<input>
				<port id="0">
					<dim>1</dim>
					<dim>112</dim>
					<dim>16</dim>
					<dim>16</dim>
				</port>
				<port id="1">
					<dim>672</dim>
					<dim>112</dim>
					<dim>1</dim>
					<dim>1</dim>
				</port>
			</input>
			<output>
				<port id="2" precision="FP32">
					<dim>1</dim>
					<dim>672</dim>
					<dim>16</dim>
					<dim>16</dim>
				</port>
			</output>
		</layer>
		<layer id="114" name="Conv__390/Dims48348799/EltwiseUnsqueeze8960_const" type="Const" version="opset1">
			<data element_type="f32" offset="1143408" shape="1,672,1,1" size="2688"/>
			<output>
				<port id="0" precision="FP32">
					<dim>1</dim>
					<dim>672</dim>
					<dim>1</dim>
					<dim>1</dim>
				</port>
			</output>
		</layer>
		<layer id="115" name="Conv__390" type="Add" version="opset1">
			<data auto_broadcast="numpy"/>
			<input>
				<port id="0">
					<dim>1</dim>
					<dim>672</dim>
					<dim>16</dim>
					<dim>16</dim>
				</port>
				<port id="1">
					<dim>1</dim>
					<dim>672</dim>
					<dim>1</dim>
					<dim>1</dim>
				</port>
			</input>
			<output>
				<port id="2" names="Conv__390:0" precision="FP32">
					<dim>1</dim>
					<dim>672</dim>
					<dim>16</dim>
					<dim>16</dim>
				</port>
			</output>
		</layer>
		<layer id="116" name="center_net_mobile_net_v2fpn_feature_extractor/model_1/model/block_7_expand_relu/Relu6_StatefulPartitionedCall/center_net_mobile_net_v2fpn_feature_extractor/model_1/model/block_7_expand_relu/Relu6_center_net_mobile_net_v2fpn_feature_extractor/model_1/model/block_7_expand_BN/FusedBatchNormV3_StatefulPartitionedCall/center_net_mobile_net_v2fpn_feature_extractor/model_1/model/block_7_expand_BN/FusedBatchNormV3_center_net_mobile_net_v2fpn_feature_extractor/model_1/model/block_7_expand/Conv2D_StatefulPartitionedCall/center_net_mobile_net_v2fpn_feature_extractor/model_1/model/block_7_expand/Conv2D_Add_14_Conv2D_16_Add_14/y" type="Clamp" version="opset1">
			<data max="6.0" min="0.0"/>
			<input>
				<port id="0">
					<dim>1</dim>
					<dim>672</dim>
					<dim>16</dim>
					<dim>16</dim>
				</port>
			</input>
			<output>
				<port id="1" names="center_net_mobile_net_v2fpn_feature_extractor/model_1/model/block_7_expand_relu/Relu6_StatefulPartitionedCall/center_net_mobile_net_v2fpn_feature_extractor/model_1/model/block_7_expand_relu/Relu6_center_net_mobile_net_v2fpn_feature_extractor/model_1/model/block_7_expand_BN/FusedBatchNormV3_StatefulPartitionedCall/center_net_mobile_net_v2fpn_feature_extractor/model_1/model/block_7_expand_BN/FusedBatchNormV3_center_net_mobile_net_v2fpn_feature_extractor/model_1/model/block_7_expand/Conv2D_StatefulPartitionedCall/center_net_mobile_net_v2fpn_feature_extractor/model_1/model/block_7_expand/Conv2D_Add_14_Conv2D_16_Add_14/y:0" precision="FP32">
					<dim>1</dim>
					<dim>672</dim>
					<dim>16</dim>
					<dim>16</dim>
				</port>
			</output>
		</layer>
		<layer id="117" name="2047320476_const" type="Const" version="opset1">
			<data element_type="f32" offset="1146096" shape="672,1,1,3,3" size="24192"/>
			<output>
				<port id="0" names="const_fold_opt__466" precision="FP32">
					<dim>672</dim>
					<dim>1</dim>
					<dim>1</dim>
					<dim>3</dim>
					<dim>3</dim>
				</port>
			</output>
		</layer>
		<layer id="118" name="Conv__391/WithoutBiases" type="GroupConvolution" version="opset1">
			<data auto_pad="explicit" dilations="1,1" pads_begin="1,1" pads_end="1,1" strides="1,1"/>
			<input>
				<port id="0">
					<dim>1</dim>
					<dim>672</dim>
					<dim>16</dim>
					<dim>16</dim>
				</port>
				<port id="1">
					<dim>672</dim>
					<dim>1</dim>
					<dim>1</dim>
					<dim>3</dim>
					<dim>3</dim>
				</port>
			</input>
			<output>
				<port id="2" precision="FP32">
					<dim>1</dim>
					<dim>672</dim>
					<dim>16</dim>
					<dim>16</dim>
				</port>
			</output>
		</layer>
		<layer id="119" name="Conv__391/Dims47748789/EltwiseUnsqueeze8920_const" type="Const" version="opset1">
			<data element_type="f32" offset="1170288" shape="1,672,1,1" size="2688"/>
			<output>
				<port id="0" precision="FP32">
					<dim>1</dim>
					<dim>672</dim>
					<dim>1</dim>
					<dim>1</dim>
				</port>
			</output>
		</layer>
		<layer id="120" name="Conv__391" type="Add" version="opset1">
			<data auto_broadcast="numpy"/>
			<input>
				<port id="0">
					<dim>1</dim>
					<dim>672</dim>
					<dim>16</dim>
					<dim>16</dim>
				</port>
				<port id="1">
					<dim>1</dim>
					<dim>672</dim>
					<dim>1</dim>
					<dim>1</dim>
				</port>
			</input>
			<output>
				<port id="2" names="Conv__391:0" precision="FP32">
					<dim>1</dim>
					<dim>672</dim>
					<dim>16</dim>
					<dim>16</dim>
				</port>
			</output>
		</layer>
		<layer id="121" name="center_net_mobile_net_v2fpn_feature_extractor/model_1/model/block_7_depthwise_relu/Relu6_StatefulPartitionedCall/center_net_mobile_net_v2fpn_feature_extractor/model_1/model/block_7_depthwise_relu/Relu6_center_net_mobile_net_v2fpn_feature_extractor/model_1/model/block_7_depthwise_BN/FusedBatchNormV3_StatefulPartitionedCall/center_net_mobile_net_v2fpn_feature_extractor/model_1/model/block_7_depthwise_BN/FusedBatchNormV3_center_net_mobile_net_v2fpn_feature_extractor/model_1/model/block_7_expand/Conv2D_StatefulPartitionedCall/center_net_mobile_net_v2fpn_feature_extractor/model_1/model/block_7_expand/Conv2D_center_net_mobile_net_v2fpn_feature_extractor/model_1/model/block_7_depthwise/depthwise_StatefulPartitionedCall/center_net_mobile_net_v2fpn_feature_extractor/model_1/model/block_7_depthwise/depthwise_Add_15_Conv2D_16_depthwise_7_Add_15/y" type="Clamp" version="opset1">
			<data max="6.0" min="0.0"/>
			<input>
				<port id="0">
					<dim>1</dim>
					<dim>672</dim>
					<dim>16</dim>
					<dim>16</dim>
				</port>
			</input>
			<output>
				<port id="1" names="center_net_mobile_net_v2fpn_feature_extractor/model_1/model/block_7_depthwise_relu/Relu6_StatefulPartitionedCall/center_net_mobile_net_v2fpn_feature_extractor/model_1/model/block_7_depthwise_relu/Relu6_center_net_mobile_net_v2fpn_feature_extractor/model_1/model/block_7_depthwise_BN/FusedBatchNormV3_StatefulPartitionedCall/center_net_mobile_net_v2fpn_feature_extractor/model_1/model/block_7_depthwise_BN/FusedBatchNormV3_center_net_mobile_net_v2fpn_feature_extractor/model_1/model/block_7_expand/Conv2D_StatefulPartitionedCall/center_net_mobile_net_v2fpn_feature_extractor/model_1/model/block_7_expand/Conv2D_center_net_mobile_net_v2fpn_feature_extractor/model_1/model/block_7_depthwise/depthwise_StatefulPartitionedCall/center_net_mobile_net_v2fpn_feature_extractor/model_1/model/block_7_depthwise/depthwise_Add_15_Conv2D_16_depthwise_7_Add_15/y:0" precision="FP32">
					<dim>1</dim>
					<dim>672</dim>
					<dim>16</dim>
					<dim>16</dim>
				</port>
			</output>
		</layer>
		<layer id="122" name="Conv2D_17/filter:0/Output_0/Data__const" type="Const" version="opset1">
			<data element_type="f32" offset="1172976" shape="112,672,1,1" size="301056"/>
			<output>
				<port id="0" names="Conv2D_17/filter:0" precision="FP32">
					<dim>112</dim>
					<dim>672</dim>
					<dim>1</dim>
					<dim>1</dim>
				</port>
			</output>
		</layer>
		<layer id="123" name="Conv__392/WithoutBiases" type="Convolution" version="opset1">
			<data auto_pad="explicit" dilations="1,1" pads_begin="0,0" pads_end="0,0" strides="1,1"/>
			<input>
				<port id="0">
					<dim>1</dim>
					<dim>672</dim>
					<dim>16</dim>
					<dim>16</dim>
				</port>
				<port id="1">
					<dim>112</dim>
					<dim>672</dim>
					<dim>1</dim>
					<dim>1</dim>
				</port>
			</input>
			<output>
				<port id="2" precision="FP32">
					<dim>1</dim>
					<dim>112</dim>
					<dim>16</dim>
					<dim>16</dim>
				</port>
			</output>
		</layer>
		<layer id="124" name="Conv__392/Dims50868841/EltwiseUnsqueeze9128_const" type="Const" version="opset1">
			<data element_type="f32" offset="1474032" shape="1,112,1,1" size="448"/>
			<output>
				<port id="0" precision="FP32">
					<dim>1</dim>
					<dim>112</dim>
					<dim>1</dim>
					<dim>1</dim>
				</port>
			</output>
		</layer>
		<layer id="125" name="Conv__392" type="Add" version="opset1">
			<data auto_broadcast="numpy"/>
			<input>
				<port id="0">
					<dim>1</dim>
					<dim>112</dim>
					<dim>16</dim>
					<dim>16</dim>
				</port>
				<port id="1">
					<dim>1</dim>
					<dim>112</dim>
					<dim>1</dim>
					<dim>1</dim>
				</port>
			</input>
			<output>
				<port id="2" names="Conv__392:0" precision="FP32">
					<dim>1</dim>
					<dim>112</dim>
					<dim>16</dim>
					<dim>16</dim>
				</port>
			</output>
		</layer>
		<layer id="126" name="center_net_mobile_net_v2fpn_feature_extractor/model_1/model/block_7_add/add_StatefulPartitionedCall/center_net_mobile_net_v2fpn_feature_extractor/model_1/model/block_7_add/add" type="Add" version="opset1">
			<data auto_broadcast="numpy"/>
			<input>
				<port id="0">
					<dim>1</dim>
					<dim>112</dim>
					<dim>16</dim>
					<dim>16</dim>
				</port>
				<port id="1">
					<dim>1</dim>
					<dim>112</dim>
					<dim>16</dim>
					<dim>16</dim>
				</port>
			</input>
			<output>
				<port id="2" names="center_net_mobile_net_v2fpn_feature_extractor/model_1/model/block_7_add/add_StatefulPartitionedCall/center_net_mobile_net_v2fpn_feature_extractor/model_1/model/block_7_add/add:0" precision="FP32">
					<dim>1</dim>
					<dim>112</dim>
					<dim>16</dim>
					<dim>16</dim>
				</port>
			</output>
		</layer>
		<layer id="127" name="Conv2D_18/filter:0/Output_0/Data__const" type="Const" version="opset1">
			<data element_type="f32" offset="1474480" shape="672,112,1,1" size="301056"/>
			<output>
				<port id="0" names="Conv2D_18/filter:0" precision="FP32">
					<dim>672</dim>
					<dim>112</dim>
					<dim>1</dim>
					<dim>1</dim>
				</port>
			</output>
		</layer>
		<layer id="128" name="Conv__395/WithoutBiases" type="Convolution" version="opset1">
			<data auto_pad="explicit" dilations="1,1" pads_begin="0,0" pads_end="0,0" strides="1,1"/>
			<input>
				<port id="0">
					<dim>1</dim>
					<dim>112</dim>
					<dim>16</dim>
					<dim>16</dim>
				</port>
				<port id="1">
					<dim>672</dim>
					<dim>112</dim>
					<dim>1</dim>
					<dim>1</dim>
				</port>
			</input>
			<output>
				<port id="2" precision="FP32">
					<dim>1</dim>
					<dim>672</dim>
					<dim>16</dim>
					<dim>16</dim>
				</port>
			</output>
		</layer>
		<layer id="129" name="Conv__395/Dims49548819/EltwiseUnsqueeze9040_const" type="Const" version="opset1">
			<data element_type="f32" offset="1775536" shape="1,672,1,1" size="2688"/>
			<output>
				<port id="0" precision="FP32">
					<dim>1</dim>
					<dim>672</dim>
					<dim>1</dim>
					<dim>1</dim>
				</port>
			</output>
		</layer>
		<layer id="130" name="Conv__395" type="Add" version="opset1">
			<data auto_broadcast="numpy"/>
			<input>
				<port id="0">
					<dim>1</dim>
					<dim>672</dim>
					<dim>16</dim>
					<dim>16</dim>
				</port>
				<port id="1">
					<dim>1</dim>
					<dim>672</dim>
					<dim>1</dim>
					<dim>1</dim>
				</port>
			</input>
			<output>
				<port id="2" names="Conv__395:0" precision="FP32">
					<dim>1</dim>
					<dim>672</dim>
					<dim>16</dim>
					<dim>16</dim>
				</port>
			</output>
		</layer>
		<layer id="131" name="center_net_mobile_net_v2fpn_feature_extractor/model_1/model/block_8_expand_relu/Relu6_StatefulPartitionedCall/center_net_mobile_net_v2fpn_feature_extractor/model_1/model/block_8_expand_relu/Relu6_center_net_mobile_net_v2fpn_feature_extractor/model_1/model/block_8_expand_BN/FusedBatchNormV3_StatefulPartitionedCall/center_net_mobile_net_v2fpn_feature_extractor/model_1/model/block_8_expand_BN/FusedBatchNormV3_center_net_mobile_net_v2fpn_feature_extractor/model_1/model/block_7_expand/Conv2D_StatefulPartitionedCall/center_net_mobile_net_v2fpn_feature_extractor/model_1/model/block_7_expand/Conv2D_center_net_mobile_net_v2fpn_feature_extractor/model_1/model/block_8_expand/Conv2D_StatefulPartitionedCall/center_net_mobile_net_v2fpn_feature_extractor/model_1/model/block_8_expand/Conv2D_Add_16_Conv2D_16_Conv2D_18_Add_16/y" type="Clamp" version="opset1">
			<data max="6.0" min="0.0"/>
			<input>
				<port id="0">
					<dim>1</dim>
					<dim>672</dim>
					<dim>16</dim>
					<dim>16</dim>
				</port>
			</input>
			<output>
				<port id="1" names="center_net_mobile_net_v2fpn_feature_extractor/model_1/model/block_8_expand_relu/Relu6_StatefulPartitionedCall/center_net_mobile_net_v2fpn_feature_extractor/model_1/model/block_8_expand_relu/Relu6_center_net_mobile_net_v2fpn_feature_extractor/model_1/model/block_8_expand_BN/FusedBatchNormV3_StatefulPartitionedCall/center_net_mobile_net_v2fpn_feature_extractor/model_1/model/block_8_expand_BN/FusedBatchNormV3_center_net_mobile_net_v2fpn_feature_extractor/model_1/model/block_7_expand/Conv2D_StatefulPartitionedCall/center_net_mobile_net_v2fpn_feature_extractor/model_1/model/block_7_expand/Conv2D_center_net_mobile_net_v2fpn_feature_extractor/model_1/model/block_8_expand/Conv2D_StatefulPartitionedCall/center_net_mobile_net_v2fpn_feature_extractor/model_1/model/block_8_expand/Conv2D_Add_16_Conv2D_16_Conv2D_18_Add_16/y:0" precision="FP32">
					<dim>1</dim>
					<dim>672</dim>
					<dim>16</dim>
					<dim>16</dim>
				</port>
			</output>
		</layer>
		<layer id="132" name="2053320536_const" type="Const" version="opset1">
			<data element_type="f32" offset="1778224" shape="672,1,1,3,3" size="24192"/>
			<output>
				<port id="0" names="const_fold_opt__470" precision="FP32">
					<dim>672</dim>
					<dim>1</dim>
					<dim>1</dim>
					<dim>3</dim>
					<dim>3</dim>
				</port>
			</output>
		</layer>
		<layer id="133" name="Conv__396/WithoutBiases" type="GroupConvolution" version="opset1">
			<data auto_pad="explicit" dilations="1,1" pads_begin="1,1" pads_end="1,1" strides="1,1"/>
			<input>
				<port id="0">
					<dim>1</dim>
					<dim>672</dim>
					<dim>16</dim>
					<dim>16</dim>
				</port>
				<port id="1">
					<dim>672</dim>
					<dim>1</dim>
					<dim>1</dim>
					<dim>3</dim>
					<dim>3</dim>
				</port>
			</input>
			<output>
				<port id="2" precision="FP32">
					<dim>1</dim>
					<dim>672</dim>
					<dim>16</dim>
					<dim>16</dim>
				</port>
			</output>
		</layer>
		<layer id="134" name="Conv__396/Dims49608820/EltwiseUnsqueeze9044_const" type="Const" version="opset1">
			<data element_type="f32" offset="1802416" shape="1,672,1,1" size="2688"/>
			<output>
				<port id="0" precision="FP32">
					<dim>1</dim>
					<dim>672</dim>
					<dim>1</dim>
					<dim>1</dim>
				</port>
			</output>
		</layer>
		<layer id="135" name="Conv__396" type="Add" version="opset1">
			<data auto_broadcast="numpy"/>
			<input>
				<port id="0">
					<dim>1</dim>
					<dim>672</dim>
					<dim>16</dim>
					<dim>16</dim>
				</port>
				<port id="1">
					<dim>1</dim>
					<dim>672</dim>
					<dim>1</dim>
					<dim>1</dim>
				</port>
			</input>
			<output>
				<port id="2" names="Conv__396:0" precision="FP32">
					<dim>1</dim>
					<dim>672</dim>
					<dim>16</dim>
					<dim>16</dim>
				</port>
			</output>
		</layer>
		<layer id="136" name="center_net_mobile_net_v2fpn_feature_extractor/model_1/model/block_8_depthwise_relu/Relu6_StatefulPartitionedCall/center_net_mobile_net_v2fpn_feature_extractor/model_1/model/block_8_depthwise_relu/Relu6_center_net_mobile_net_v2fpn_feature_extractor/model_1/model/block_8_depthwise_BN/FusedBatchNormV3_StatefulPartitionedCall/center_net_mobile_net_v2fpn_feature_extractor/model_1/model/block_8_depthwise_BN/FusedBatchNormV3_center_net_mobile_net_v2fpn_feature_extractor/model_1/model/block_7_expand/Conv2D_StatefulPartitionedCall/center_net_mobile_net_v2fpn_feature_extractor/model_1/model/block_7_expand/Conv2D_center_net_mobile_net_v2fpn_feature_extractor/model_1/model/block_8_depthwise/depthwise_StatefulPartitionedCall/center_net_mobile_net_v2fpn_feature_extractor/model_1/model/block_8_depthwise/depthwise_Add_17_Conv2D_16_depthwise_8_Add_17/y" type="Clamp" version="opset1">
			<data max="6.0" min="0.0"/>
			<input>
				<port id="0">
					<dim>1</dim>
					<dim>672</dim>
					<dim>16</dim>
					<dim>16</dim>
				</port>
			</input>
			<output>
				<port id="1" names="center_net_mobile_net_v2fpn_feature_extractor/model_1/model/block_8_depthwise_relu/Relu6_StatefulPartitionedCall/center_net_mobile_net_v2fpn_feature_extractor/model_1/model/block_8_depthwise_relu/Relu6_center_net_mobile_net_v2fpn_feature_extractor/model_1/model/block_8_depthwise_BN/FusedBatchNormV3_StatefulPartitionedCall/center_net_mobile_net_v2fpn_feature_extractor/model_1/model/block_8_depthwise_BN/FusedBatchNormV3_center_net_mobile_net_v2fpn_feature_extractor/model_1/model/block_7_expand/Conv2D_StatefulPartitionedCall/center_net_mobile_net_v2fpn_feature_extractor/model_1/model/block_7_expand/Conv2D_center_net_mobile_net_v2fpn_feature_extractor/model_1/model/block_8_depthwise/depthwise_StatefulPartitionedCall/center_net_mobile_net_v2fpn_feature_extractor/model_1/model/block_8_depthwise/depthwise_Add_17_Conv2D_16_depthwise_8_Add_17/y:0" precision="FP32">
					<dim>1</dim>
					<dim>672</dim>
					<dim>16</dim>
					<dim>16</dim>
				</port>
			</output>
		</layer>
		<layer id="137" name="Conv2D_19/filter:0/Output_0/Data__const" type="Const" version="opset1">
			<data element_type="f32" offset="1805104" shape="112,672,1,1" size="301056"/>
			<output>
				<port id="0" names="Conv2D_19/filter:0" precision="FP32">
					<dim>112</dim>
					<dim>672</dim>
					<dim>1</dim>
					<dim>1</dim>
				</port>
			</output>
		</layer>
		<layer id="138" name="Conv__397/WithoutBiases" type="Convolution" version="opset1">
			<data auto_pad="explicit" dilations="1,1" pads_begin="0,0" pads_end="0,0" strides="1,1"/>
			<input>
				<port id="0">
					<dim>1</dim>
					<dim>672</dim>
					<dim>16</dim>
					<dim>16</dim>
				</port>
				<port id="1">
					<dim>112</dim>
					<dim>672</dim>
					<dim>1</dim>
					<dim>1</dim>
				</port>
			</input>
			<output>
				<port id="2" precision="FP32">
					<dim>1</dim>
					<dim>112</dim>
					<dim>16</dim>
					<dim>16</dim>
				</port>
			</output>
		</layer>
		<layer id="139" name="Conv__397/Dims49068811/EltwiseUnsqueeze9008_const" type="Const" version="opset1">
			<data element_type="f32" offset="2106160" shape="1,112,1,1" size="448"/>
			<output>
				<port id="0" precision="FP32">
					<dim>1</dim>
					<dim>112</dim>
					<dim>1</dim>
					<dim>1</dim>
				</port>
			</output>
		</layer>
		<layer id="140" name="Conv__397" type="Add" version="opset1">
			<data auto_broadcast="numpy"/>
			<input>
				<port id="0">
					<dim>1</dim>
					<dim>112</dim>
					<dim>16</dim>
					<dim>16</dim>
				</port>
				<port id="1">
					<dim>1</dim>
					<dim>112</dim>
					<dim>1</dim>
					<dim>1</dim>
				</port>
			</input>
			<output>
				<port id="2" names="Conv__397:0" precision="FP32">
					<dim>1</dim>
					<dim>112</dim>
					<dim>16</dim>
					<dim>16</dim>
				</port>
			</output>
		</layer>
		<layer id="141" name="center_net_mobile_net_v2fpn_feature_extractor/model_1/model/block_8_add/add_StatefulPartitionedCall/center_net_mobile_net_v2fpn_feature_extractor/model_1/model/block_8_add/add" type="Add" version="opset1">
			<data auto_broadcast="numpy"/>
			<input>
				<port id="0">
					<dim>1</dim>
					<dim>112</dim>
					<dim>16</dim>
					<dim>16</dim>
				</port>
				<port id="1">
					<dim>1</dim>
					<dim>112</dim>
					<dim>16</dim>
					<dim>16</dim>
				</port>
			</input>
			<output>
				<port id="2" names="center_net_mobile_net_v2fpn_feature_extractor/model_1/model/block_8_add/add_StatefulPartitionedCall/center_net_mobile_net_v2fpn_feature_extractor/model_1/model/block_8_add/add:0" precision="FP32">
					<dim>1</dim>
					<dim>112</dim>
					<dim>16</dim>
					<dim>16</dim>
				</port>
			</output>
		</layer>
		<layer id="142" name="Conv2D_20/filter:0/Output_0/Data__const" type="Const" version="opset1">
			<data element_type="f32" offset="2106608" shape="672,112,1,1" size="301056"/>
			<output>
				<port id="0" names="Conv2D_20/filter:0" precision="FP32">
					<dim>672</dim>
					<dim>112</dim>
					<dim>1</dim>
					<dim>1</dim>
				</port>
			</output>
		</layer>
		<layer id="143" name="Conv__400/WithoutBiases" type="Convolution" version="opset1">
			<data auto_pad="explicit" dilations="1,1" pads_begin="0,0" pads_end="0,0" strides="1,1"/>
			<input>
				<port id="0">
					<dim>1</dim>
					<dim>112</dim>
					<dim>16</dim>
					<dim>16</dim>
				</port>
				<port id="1">
					<dim>672</dim>
					<dim>112</dim>
					<dim>1</dim>
					<dim>1</dim>
				</port>
			</input>
			<output>
				<port id="2" precision="FP32">
					<dim>1</dim>
					<dim>672</dim>
					<dim>16</dim>
					<dim>16</dim>
				</port>
			</output>
		</layer>
		<layer id="144" name="Conv__400/Dims49968826/EltwiseUnsqueeze9068_const" type="Const" version="opset1">
			<data element_type="f32" offset="2407664" shape="1,672,1,1" size="2688"/>
			<output>
				<port id="0" precision="FP32">
					<dim>1</dim>
					<dim>672</dim>
					<dim>1</dim>
					<dim>1</dim>
				</port>
			</output>
		</layer>
		<layer id="145" name="Conv__400" type="Add" version="opset1">
			<data auto_broadcast="numpy"/>
			<input>
				<port id="0">
					<dim>1</dim>
					<dim>672</dim>
					<dim>16</dim>
					<dim>16</dim>
				</port>
				<port id="1">
					<dim>1</dim>
					<dim>672</dim>
					<dim>1</dim>
					<dim>1</dim>
				</port>
			</input>
			<output>
				<port id="2" names="Conv__400:0" precision="FP32">
					<dim>1</dim>
					<dim>672</dim>
					<dim>16</dim>
					<dim>16</dim>
				</port>
			</output>
		</layer>
		<layer id="146" name="center_net_mobile_net_v2fpn_feature_extractor/model_1/model/block_9_expand_relu/Relu6_StatefulPartitionedCall/center_net_mobile_net_v2fpn_feature_extractor/model_1/model/block_9_expand_relu/Relu6_center_net_mobile_net_v2fpn_feature_extractor/model_1/model/block_9_expand_BN/FusedBatchNormV3_StatefulPartitionedCall/center_net_mobile_net_v2fpn_feature_extractor/model_1/model/block_9_expand_BN/FusedBatchNormV3_center_net_mobile_net_v2fpn_feature_extractor/model_1/model/block_7_expand/Conv2D_StatefulPartitionedCall/center_net_mobile_net_v2fpn_feature_extractor/model_1/model/block_7_expand/Conv2D_center_net_mobile_net_v2fpn_feature_extractor/model_1/model/block_9_expand/Conv2D_StatefulPartitionedCall/center_net_mobile_net_v2fpn_feature_extractor/model_1/model/block_9_expand/Conv2D_Add_18_Conv2D_16_Conv2D_20_Add_18/y" type="Clamp" version="opset1">
			<data max="6.0" min="0.0"/>
			<input>
				<port id="0">
					<dim>1</dim>
					<dim>672</dim>
					<dim>16</dim>
					<dim>16</dim>
				</port>
			</input>
			<output>
				<port id="1" names="center_net_mobile_net_v2fpn_feature_extractor/model_1/model/block_9_expand_relu/Relu6_StatefulPartitionedCall/center_net_mobile_net_v2fpn_feature_extractor/model_1/model/block_9_expand_relu/Relu6_center_net_mobile_net_v2fpn_feature_extractor/model_1/model/block_9_expand_BN/FusedBatchNormV3_StatefulPartitionedCall/center_net_mobile_net_v2fpn_feature_extractor/model_1/model/block_9_expand_BN/FusedBatchNormV3_center_net_mobile_net_v2fpn_feature_extractor/model_1/model/block_7_expand/Conv2D_StatefulPartitionedCall/center_net_mobile_net_v2fpn_feature_extractor/model_1/model/block_7_expand/Conv2D_center_net_mobile_net_v2fpn_feature_extractor/model_1/model/block_9_expand/Conv2D_StatefulPartitionedCall/center_net_mobile_net_v2fpn_feature_extractor/model_1/model/block_9_expand/Conv2D_Add_18_Conv2D_16_Conv2D_20_Add_18/y:0" precision="FP32">
					<dim>1</dim>
					<dim>672</dim>
					<dim>16</dim>
					<dim>16</dim>
				</port>
			</output>
		</layer>
		<layer id="147" name="2050920512_const" type="Const" version="opset1">
			<data element_type="f32" offset="2410352" shape="672,1,1,3,3" size="24192"/>
			<output>
				<port id="0" names="const_fold_opt__501" precision="FP32">
					<dim>672</dim>
					<dim>1</dim>
					<dim>1</dim>
					<dim>3</dim>
					<dim>3</dim>
				</port>
			</output>
		</layer>
		<layer id="148" name="Conv__401/WithoutBiases" type="GroupConvolution" version="opset1">
			<data auto_pad="explicit" dilations="1,1" pads_begin="1,1" pads_end="1,1" strides="1,1"/>
			<input>
				<port id="0">
					<dim>1</dim>
					<dim>672</dim>
					<dim>16</dim>
					<dim>16</dim>
				</port>
				<port id="1">
					<dim>672</dim>
					<dim>1</dim>
					<dim>1</dim>
					<dim>3</dim>
					<dim>3</dim>
				</port>
			</input>
			<output>
				<port id="2" precision="FP32">
					<dim>1</dim>
					<dim>672</dim>
					<dim>16</dim>
					<dim>16</dim>
				</port>
			</output>
		</layer>
		<layer id="149" name="Conv__401/Dims48708805/EltwiseUnsqueeze8984_const" type="Const" version="opset1">
			<data element_type="f32" offset="2434544" shape="1,672,1,1" size="2688"/>
			<output>
				<port id="0" precision="FP32">
					<dim>1</dim>
					<dim>672</dim>
					<dim>1</dim>
					<dim>1</dim>
				</port>
			</output>
		</layer>
		<layer id="150" name="Conv__401" type="Add" version="opset1">
			<data auto_broadcast="numpy"/>
			<input>
				<port id="0">
					<dim>1</dim>
					<dim>672</dim>
					<dim>16</dim>
					<dim>16</dim>
				</port>
				<port id="1">
					<dim>1</dim>
					<dim>672</dim>
					<dim>1</dim>
					<dim>1</dim>
				</port>
			</input>
			<output>
				<port id="2" names="Conv__401:0" precision="FP32">
					<dim>1</dim>
					<dim>672</dim>
					<dim>16</dim>
					<dim>16</dim>
				</port>
			</output>
		</layer>
		<layer id="151" name="center_net_mobile_net_v2fpn_feature_extractor/model_1/model/block_9_depthwise_relu/Relu6_StatefulPartitionedCall/center_net_mobile_net_v2fpn_feature_extractor/model_1/model/block_9_depthwise_relu/Relu6_center_net_mobile_net_v2fpn_feature_extractor/model_1/model/block_9_depthwise_BN/FusedBatchNormV3_StatefulPartitionedCall/center_net_mobile_net_v2fpn_feature_extractor/model_1/model/block_9_depthwise_BN/FusedBatchNormV3_center_net_mobile_net_v2fpn_feature_extractor/model_1/model/block_7_expand/Conv2D_StatefulPartitionedCall/center_net_mobile_net_v2fpn_feature_extractor/model_1/model/block_7_expand/Conv2D_center_net_mobile_net_v2fpn_feature_extractor/model_1/model/block_9_depthwise/depthwise_StatefulPartitionedCall/center_net_mobile_net_v2fpn_feature_extractor/model_1/model/block_9_depthwise/depthwise_Add_19_Conv2D_16_depthwise_9_Add_19/y" type="Clamp" version="opset1">
			<data max="6.0" min="0.0"/>
			<input>
				<port id="0">
					<dim>1</dim>
					<dim>672</dim>
					<dim>16</dim>
					<dim>16</dim>
				</port>
			</input>
			<output>
				<port id="1" names="center_net_mobile_net_v2fpn_feature_extractor/model_1/model/block_9_depthwise_relu/Relu6_StatefulPartitionedCall/center_net_mobile_net_v2fpn_feature_extractor/model_1/model/block_9_depthwise_relu/Relu6_center_net_mobile_net_v2fpn_feature_extractor/model_1/model/block_9_depthwise_BN/FusedBatchNormV3_StatefulPartitionedCall/center_net_mobile_net_v2fpn_feature_extractor/model_1/model/block_9_depthwise_BN/FusedBatchNormV3_center_net_mobile_net_v2fpn_feature_extractor/model_1/model/block_7_expand/Conv2D_StatefulPartitionedCall/center_net_mobile_net_v2fpn_feature_extractor/model_1/model/block_7_expand/Conv2D_center_net_mobile_net_v2fpn_feature_extractor/model_1/model/block_9_depthwise/depthwise_StatefulPartitionedCall/center_net_mobile_net_v2fpn_feature_extractor/model_1/model/block_9_depthwise/depthwise_Add_19_Conv2D_16_depthwise_9_Add_19/y:0" precision="FP32">
					<dim>1</dim>
					<dim>672</dim>
					<dim>16</dim>
					<dim>16</dim>
				</port>
			</output>
		</layer>
		<layer id="152" name="Conv2D_21/filter:0/Output_0/Data__const" type="Const" version="opset1">
			<data element_type="f32" offset="2437232" shape="112,672,1,1" size="301056"/>
			<output>
				<port id="0" names="Conv2D_21/filter:0" precision="FP32">
					<dim>112</dim>
					<dim>672</dim>
					<dim>1</dim>
					<dim>1</dim>
				</port>
			</output>
		</layer>
		<layer id="153" name="Conv__402/WithoutBiases" type="Convolution" version="opset1">
			<data auto_pad="explicit" dilations="1,1" pads_begin="0,0" pads_end="0,0" strides="1,1"/>
			<input>
				<port id="0">
					<dim>1</dim>
					<dim>672</dim>
					<dim>16</dim>
					<dim>16</dim>
				</port>
				<port id="1">
					<dim>112</dim>
					<dim>672</dim>
					<dim>1</dim>
					<dim>1</dim>
				</port>
			</input>
			<output>
				<port id="2" precision="FP32">
					<dim>1</dim>
					<dim>112</dim>
					<dim>16</dim>
					<dim>16</dim>
				</port>
			</output>
		</layer>
		<layer id="154" name="Conv__402/Dims51288848/EltwiseUnsqueeze9156_const" type="Const" version="opset1">
			<data element_type="f32" offset="2738288" shape="1,112,1,1" size="448"/>
			<output>
				<port id="0" precision="FP32">
					<dim>1</dim>
					<dim>112</dim>
					<dim>1</dim>
					<dim>1</dim>
				</port>
			</output>
		</layer>
		<layer id="155" name="Conv__402" type="Add" version="opset1">
			<data auto_broadcast="numpy"/>
			<input>
				<port id="0">
					<dim>1</dim>
					<dim>112</dim>
					<dim>16</dim>
					<dim>16</dim>
				</port>
				<port id="1">
					<dim>1</dim>
					<dim>112</dim>
					<dim>1</dim>
					<dim>1</dim>
				</port>
			</input>
			<output>
				<port id="2" names="Conv__402:0" precision="FP32">
					<dim>1</dim>
					<dim>112</dim>
					<dim>16</dim>
					<dim>16</dim>
				</port>
			</output>
		</layer>
		<layer id="156" name="center_net_mobile_net_v2fpn_feature_extractor/model_1/model/block_9_add/add_StatefulPartitionedCall/center_net_mobile_net_v2fpn_feature_extractor/model_1/model/block_9_add/add" type="Add" version="opset1">
			<data auto_broadcast="numpy"/>
			<input>
				<port id="0">
					<dim>1</dim>
					<dim>112</dim>
					<dim>16</dim>
					<dim>16</dim>
				</port>
				<port id="1">
					<dim>1</dim>
					<dim>112</dim>
					<dim>16</dim>
					<dim>16</dim>
				</port>
			</input>
			<output>
				<port id="2" names="center_net_mobile_net_v2fpn_feature_extractor/model_1/model/block_9_add/add_StatefulPartitionedCall/center_net_mobile_net_v2fpn_feature_extractor/model_1/model/block_9_add/add:0" precision="FP32">
					<dim>1</dim>
					<dim>112</dim>
					<dim>16</dim>
					<dim>16</dim>
				</port>
			</output>
		</layer>
		<layer id="157" name="Conv2D_23/filter:0/Output_0/Data__const" type="Const" version="opset1">
			<data element_type="f32" offset="2738736" shape="672,112,1,1" size="301056"/>
			<output>
				<port id="0" names="Conv2D_23/filter:0" precision="FP32">
					<dim>672</dim>
					<dim>112</dim>
					<dim>1</dim>
					<dim>1</dim>
				</port>
			</output>
		</layer>
		<layer id="158" name="Conv__403/WithoutBiases" type="Convolution" version="opset1">
			<data auto_pad="explicit" dilations="1,1" pads_begin="0,0" pads_end="0,0" strides="1,1"/>
			<input>
				<port id="0">
					<dim>1</dim>
					<dim>112</dim>
					<dim>16</dim>
					<dim>16</dim>
				</port>
				<port id="1">
					<dim>672</dim>
					<dim>112</dim>
					<dim>1</dim>
					<dim>1</dim>
				</port>
			</input>
			<output>
				<port id="2" precision="FP32">
					<dim>1</dim>
					<dim>672</dim>
					<dim>16</dim>
					<dim>16</dim>
				</port>
			</output>
		</layer>
		<layer id="159" name="Conv__403/Dims48528802/EltwiseUnsqueeze8972_const" type="Const" version="opset1">
			<data element_type="f32" offset="3039792" shape="1,672,1,1" size="2688"/>
			<output>
				<port id="0" precision="FP32">
					<dim>1</dim>
					<dim>672</dim>
					<dim>1</dim>
					<dim>1</dim>
				</port>
			</output>
		</layer>
		<layer id="160" name="Conv__403" type="Add" version="opset1">
			<data auto_broadcast="numpy"/>
			<input>
				<port id="0">
					<dim>1</dim>
					<dim>672</dim>
					<dim>16</dim>
					<dim>16</dim>
				</port>
				<port id="1">
					<dim>1</dim>
					<dim>672</dim>
					<dim>1</dim>
					<dim>1</dim>
				</port>
			</input>
			<output>
				<port id="2" names="Conv__403:0" precision="FP32">
					<dim>1</dim>
					<dim>672</dim>
					<dim>16</dim>
					<dim>16</dim>
				</port>
			</output>
		</layer>
		<layer id="161" name="center_net_mobile_net_v2fpn_feature_extractor/model_1/model/block_10_expand_relu/Relu6_StatefulPartitionedCall/center_net_mobile_net_v2fpn_feature_extractor/model_1/model/block_10_expand_relu/Relu6_center_net_mobile_net_v2fpn_feature_extractor/model_1/model/block_10_expand_BN/FusedBatchNormV3_StatefulPartitionedCall/center_net_mobile_net_v2fpn_feature_extractor/model_1/model/block_10_expand_BN/FusedBatchNormV3_center_net_mobile_net_v2fpn_feature_extractor/model_1/model/block_7_expand/Conv2D_StatefulPartitionedCall/center_net_mobile_net_v2fpn_feature_extractor/model_1/model/block_7_expand/Conv2D_center_net_mobile_net_v2fpn_feature_extractor/model_1/model/block_10_expand/Conv2D_StatefulPartitionedCall/center_net_mobile_net_v2fpn_feature_extractor/model_1/model/block_10_expand/Conv2D_Add_20_Conv2D_16_Conv2D_23_Add_20/y" type="Clamp" version="opset1">
			<data max="6.0" min="0.0"/>
			<input>
				<port id="0">
					<dim>1</dim>
					<dim>672</dim>
					<dim>16</dim>
					<dim>16</dim>
				</port>
			</input>
			<output>
				<port id="1" names="center_net_mobile_net_v2fpn_feature_extractor/model_1/model/block_10_expand_relu/Relu6_StatefulPartitionedCall/center_net_mobile_net_v2fpn_feature_extractor/model_1/model/block_10_expand_relu/Relu6_center_net_mobile_net_v2fpn_feature_extractor/model_1/model/block_10_expand_BN/FusedBatchNormV3_StatefulPartitionedCall/center_net_mobile_net_v2fpn_feature_extractor/model_1/model/block_10_expand_BN/FusedBatchNormV3_center_net_mobile_net_v2fpn_feature_extractor/model_1/model/block_7_expand/Conv2D_StatefulPartitionedCall/center_net_mobile_net_v2fpn_feature_extractor/model_1/model/block_7_expand/Conv2D_center_net_mobile_net_v2fpn_feature_extractor/model_1/model/block_10_expand/Conv2D_StatefulPartitionedCall/center_net_mobile_net_v2fpn_feature_extractor/model_1/model/block_10_expand/Conv2D_Add_20_Conv2D_16_Conv2D_23_Add_20/y:0" precision="FP32">
					<dim>1</dim>
					<dim>672</dim>
					<dim>16</dim>
					<dim>16</dim>
				</port>
			</output>
		</layer>
		<layer id="162" name="2054920552_const" type="Const" version="opset1">
			<data element_type="f32" offset="3042480" shape="672,1,1,3,3" size="24192"/>
			<output>
				<port id="0" names="const_fold_opt__502" precision="FP32">
					<dim>672</dim>
					<dim>1</dim>
					<dim>1</dim>
					<dim>3</dim>
					<dim>3</dim>
				</port>
			</output>
		</layer>
		<layer id="163" name="Conv__404/WithoutBiases" type="GroupConvolution" version="opset1">
			<data auto_pad="explicit" dilations="1,1" pads_begin="1,1" pads_end="1,1" strides="1,1"/>
			<input>
				<port id="0">
					<dim>1</dim>
					<dim>672</dim>
					<dim>16</dim>
					<dim>16</dim>
				</port>
				<port id="1">
					<dim>672</dim>
					<dim>1</dim>
					<dim>1</dim>
					<dim>3</dim>
					<dim>3</dim>
				</port>
			</input>
			<output>
				<port id="2" precision="FP32">
					<dim>1</dim>
					<dim>672</dim>
					<dim>16</dim>
					<dim>16</dim>
				</port>
			</output>
		</layer>
		<layer id="164" name="Conv__404/Dims50448834/EltwiseUnsqueeze9100_const" type="Const" version="opset1">
			<data element_type="f32" offset="3066672" shape="1,672,1,1" size="2688"/>
			<output>
				<port id="0" precision="FP32">
					<dim>1</dim>
					<dim>672</dim>
					<dim>1</dim>
					<dim>1</dim>
				</port>
			</output>
		</layer>
		<layer id="165" name="Conv__404" type="Add" version="opset1">
			<data auto_broadcast="numpy"/>
			<input>
				<port id="0">
					<dim>1</dim>
					<dim>672</dim>
					<dim>16</dim>
					<dim>16</dim>
				</port>
				<port id="1">
					<dim>1</dim>
					<dim>672</dim>
					<dim>1</dim>
					<dim>1</dim>
				</port>
			</input>
			<output>
				<port id="2" names="Conv__404:0" precision="FP32">
					<dim>1</dim>
					<dim>672</dim>
					<dim>16</dim>
					<dim>16</dim>
				</port>
			</output>
		</layer>
		<layer id="166" name="center_net_mobile_net_v2fpn_feature_extractor/model_1/model/block_10_depthwise_relu/Relu6_StatefulPartitionedCall/center_net_mobile_net_v2fpn_feature_extractor/model_1/model/block_10_depthwise_relu/Relu6_center_net_mobile_net_v2fpn_feature_extractor/model_1/model/block_10_depthwise_BN/FusedBatchNormV3_StatefulPartitionedCall/center_net_mobile_net_v2fpn_feature_extractor/model_1/model/block_10_depthwise_BN/FusedBatchNormV3_center_net_mobile_net_v2fpn_feature_extractor/model_1/model/block_10_depthwise/depthwise_StatefulPartitionedCall/center_net_mobile_net_v2fpn_feature_extractor/model_1/model/block_10_depthwise/depthwise_center_net_mobile_net_v2fpn_feature_extractor/model_1/model/block_7_expand/Conv2D_StatefulPartitionedCall/center_net_mobile_net_v2fpn_feature_extractor/model_1/model/block_7_expand/Conv2D_Add_21_Conv2D_16_depthwise_10_Add_21/y" type="Clamp" version="opset1">
			<data max="6.0" min="0.0"/>
			<input>
				<port id="0">
					<dim>1</dim>
					<dim>672</dim>
					<dim>16</dim>
					<dim>16</dim>
				</port>
			</input>
			<output>
				<port id="1" names="center_net_mobile_net_v2fpn_feature_extractor/model_1/model/block_10_depthwise_relu/Relu6_StatefulPartitionedCall/center_net_mobile_net_v2fpn_feature_extractor/model_1/model/block_10_depthwise_relu/Relu6_center_net_mobile_net_v2fpn_feature_extractor/model_1/model/block_10_depthwise_BN/FusedBatchNormV3_StatefulPartitionedCall/center_net_mobile_net_v2fpn_feature_extractor/model_1/model/block_10_depthwise_BN/FusedBatchNormV3_center_net_mobile_net_v2fpn_feature_extractor/model_1/model/block_10_depthwise/depthwise_StatefulPartitionedCall/center_net_mobile_net_v2fpn_feature_extractor/model_1/model/block_10_depthwise/depthwise_center_net_mobile_net_v2fpn_feature_extractor/model_1/model/block_7_expand/Conv2D_StatefulPartitionedCall/center_net_mobile_net_v2fpn_feature_extractor/model_1/model/block_7_expand/Conv2D_Add_21_Conv2D_16_depthwise_10_Add_21/y:0" precision="FP32">
					<dim>1</dim>
					<dim>672</dim>
					<dim>16</dim>
					<dim>16</dim>
				</port>
			</output>
		</layer>
		<layer id="167" name="Conv2D_24/filter:0/Output_0/Data__const" type="Const" version="opset1">
			<data element_type="f32" offset="3069360" shape="168,672,1,1" size="451584"/>
			<output>
				<port id="0" names="Conv2D_24/filter:0" precision="FP32">
					<dim>168</dim>
					<dim>672</dim>
					<dim>1</dim>
					<dim>1</dim>
				</port>
			</output>
		</layer>
		<layer id="168" name="Conv__405/WithoutBiases" type="Convolution" version="opset1">
			<data auto_pad="explicit" dilations="1,1" pads_begin="0,0" pads_end="0,0" strides="1,1"/>
			<input>
				<port id="0">
					<dim>1</dim>
					<dim>672</dim>
					<dim>16</dim>
					<dim>16</dim>
				</port>
				<port id="1">
					<dim>168</dim>
					<dim>672</dim>
					<dim>1</dim>
					<dim>1</dim>
				</port>
			</input>
			<output>
				<port id="2" precision="FP32">
					<dim>1</dim>
					<dim>168</dim>
					<dim>16</dim>
					<dim>16</dim>
				</port>
			</output>
		</layer>
		<layer id="169" name="Conv__405/Dims49248814/EltwiseUnsqueeze9020_const" type="Const" version="opset1">
			<data element_type="f32" offset="3520944" shape="1,168,1,1" size="672"/>
			<output>
				<port id="0" precision="FP32">
					<dim>1</dim>
					<dim>168</dim>
					<dim>1</dim>
					<dim>1</dim>
				</port>
			</output>
		</layer>
		<layer id="170" name="Conv__405" type="Add" version="opset1">
			<data auto_broadcast="numpy"/>
			<input>
				<port id="0">
					<dim>1</dim>
					<dim>168</dim>
					<dim>16</dim>
					<dim>16</dim>
				</port>
				<port id="1">
					<dim>1</dim>
					<dim>168</dim>
					<dim>1</dim>
					<dim>1</dim>
				</port>
			</input>
			<output>
				<port id="2" names="Conv__405:0" precision="FP32">
					<dim>1</dim>
					<dim>168</dim>
					<dim>16</dim>
					<dim>16</dim>
				</port>
			</output>
		</layer>
		<layer id="171" name="Conv2D_25/filter:0/Output_0/Data__const" type="Const" version="opset1">
			<data element_type="f32" offset="3521616" shape="1008,168,1,1" size="677376"/>
			<output>
				<port id="0" names="Conv2D_25/filter:0" precision="FP32">
					<dim>1008</dim>
					<dim>168</dim>
					<dim>1</dim>
					<dim>1</dim>
				</port>
			</output>
		</layer>
		<layer id="172" name="Conv__408/WithoutBiases" type="Convolution" version="opset1">
			<data auto_pad="explicit" dilations="1,1" pads_begin="0,0" pads_end="0,0" strides="1,1"/>
			<input>
				<port id="0">
					<dim>1</dim>
					<dim>168</dim>
					<dim>16</dim>
					<dim>16</dim>
				</port>
				<port id="1">
					<dim>1008</dim>
					<dim>168</dim>
					<dim>1</dim>
					<dim>1</dim>
				</port>
			</input>
			<output>
				<port id="2" precision="FP32">
					<dim>1</dim>
					<dim>1008</dim>
					<dim>16</dim>
					<dim>16</dim>
				</port>
			</output>
		</layer>
		<layer id="173" name="Conv__408/Dims50388833/EltwiseUnsqueeze9096_const" type="Const" version="opset1">
			<data element_type="f32" offset="4198992" shape="1,1008,1,1" size="4032"/>
			<output>
				<port id="0" precision="FP32">
					<dim>1</dim>
					<dim>1008</dim>
					<dim>1</dim>
					<dim>1</dim>
				</port>
			</output>
		</layer>
		<layer id="174" name="Conv__408" type="Add" version="opset1">
			<data auto_broadcast="numpy"/>
			<input>
				<port id="0">
					<dim>1</dim>
					<dim>1008</dim>
					<dim>16</dim>
					<dim>16</dim>
				</port>
				<port id="1">
					<dim>1</dim>
					<dim>1008</dim>
					<dim>1</dim>
					<dim>1</dim>
				</port>
			</input>
			<output>
				<port id="2" names="Conv__408:0" precision="FP32">
					<dim>1</dim>
					<dim>1008</dim>
					<dim>16</dim>
					<dim>16</dim>
				</port>
			</output>
		</layer>
		<layer id="175" name="center_net_mobile_net_v2fpn_feature_extractor/model_1/model/block_11_expand_relu/Relu6_StatefulPartitionedCall/center_net_mobile_net_v2fpn_feature_extractor/model_1/model/block_11_expand_relu/Relu6_center_net_mobile_net_v2fpn_feature_extractor/model_1/model/block_11_expand_BN/FusedBatchNormV3_StatefulPartitionedCall/center_net_mobile_net_v2fpn_feature_extractor/model_1/model/block_11_expand_BN/FusedBatchNormV3_center_net_mobile_net_v2fpn_feature_extractor/model_1/model/block_11_expand/Conv2D_StatefulPartitionedCall/center_net_mobile_net_v2fpn_feature_extractor/model_1/model/block_11_expand/Conv2D_Add_22_Conv2D_25_Add_22/y" type="Clamp" version="opset1">
			<data max="6.0" min="0.0"/>
			<input>
				<port id="0">
					<dim>1</dim>
					<dim>1008</dim>
					<dim>16</dim>
					<dim>16</dim>
				</port>
			</input>
			<output>
				<port id="1" names="center_net_mobile_net_v2fpn_feature_extractor/model_1/model/block_11_expand_relu/Relu6_StatefulPartitionedCall/center_net_mobile_net_v2fpn_feature_extractor/model_1/model/block_11_expand_relu/Relu6_center_net_mobile_net_v2fpn_feature_extractor/model_1/model/block_11_expand_BN/FusedBatchNormV3_StatefulPartitionedCall/center_net_mobile_net_v2fpn_feature_extractor/model_1/model/block_11_expand_BN/FusedBatchNormV3_center_net_mobile_net_v2fpn_feature_extractor/model_1/model/block_11_expand/Conv2D_StatefulPartitionedCall/center_net_mobile_net_v2fpn_feature_extractor/model_1/model/block_11_expand/Conv2D_Add_22_Conv2D_25_Add_22/y:0" precision="FP32">
					<dim>1</dim>
					<dim>1008</dim>
					<dim>16</dim>
					<dim>16</dim>
				</port>
			</output>
		</layer>
		<layer id="176" name="2055320556_const" type="Const" version="opset1">
			<data element_type="f32" offset="4203024" shape="1008,1,1,3,3" size="36288"/>
			<output>
				<port id="0" names="const_fold_opt__479" precision="FP32">
					<dim>1008</dim>
					<dim>1</dim>
					<dim>1</dim>
					<dim>3</dim>
					<dim>3</dim>
				</port>
			</output>
		</layer>
		<layer id="177" name="Conv__409/WithoutBiases" type="GroupConvolution" version="opset1">
			<data auto_pad="explicit" dilations="1,1" pads_begin="1,1" pads_end="1,1" strides="1,1"/>
			<input>
				<port id="0">
					<dim>1</dim>
					<dim>1008</dim>
					<dim>16</dim>
					<dim>16</dim>
				</port>
				<port id="1">
					<dim>1008</dim>
					<dim>1</dim>
					<dim>1</dim>
					<dim>3</dim>
					<dim>3</dim>
				</port>
			</input>
			<output>
				<port id="2" precision="FP32">
					<dim>1</dim>
					<dim>1008</dim>
					<dim>16</dim>
					<dim>16</dim>
				</port>
			</output>
		</layer>
		<layer id="178" name="Conv__409/Dims50508835/EltwiseUnsqueeze9104_const" type="Const" version="opset1">
			<data element_type="f32" offset="4239312" shape="1,1008,1,1" size="4032"/>
			<output>
				<port id="0" precision="FP32">
					<dim>1</dim>
					<dim>1008</dim>
					<dim>1</dim>
					<dim>1</dim>
				</port>
			</output>
		</layer>
		<layer id="179" name="Conv__409" type="Add" version="opset1">
			<data auto_broadcast="numpy"/>
			<input>
				<port id="0">
					<dim>1</dim>
					<dim>1008</dim>
					<dim>16</dim>
					<dim>16</dim>
				</port>
				<port id="1">
					<dim>1</dim>
					<dim>1008</dim>
					<dim>1</dim>
					<dim>1</dim>
				</port>
			</input>
			<output>
				<port id="2" names="Conv__409:0" precision="FP32">
					<dim>1</dim>
					<dim>1008</dim>
					<dim>16</dim>
					<dim>16</dim>
				</port>
			</output>
		</layer>
		<layer id="180" name="center_net_mobile_net_v2fpn_feature_extractor/model_1/model/block_11_depthwise_relu/Relu6_StatefulPartitionedCall/center_net_mobile_net_v2fpn_feature_extractor/model_1/model/block_11_depthwise_relu/Relu6_center_net_mobile_net_v2fpn_feature_extractor/model_1/model/block_11_depthwise_BN/FusedBatchNormV3_StatefulPartitionedCall/center_net_mobile_net_v2fpn_feature_extractor/model_1/model/block_11_depthwise_BN/FusedBatchNormV3_center_net_mobile_net_v2fpn_feature_extractor/model_1/model/block_11_expand/Conv2D_StatefulPartitionedCall/center_net_mobile_net_v2fpn_feature_extractor/model_1/model/block_11_expand/Conv2D_center_net_mobile_net_v2fpn_feature_extractor/model_1/model/block_11_depthwise/depthwise_StatefulPartitionedCall/center_net_mobile_net_v2fpn_feature_extractor/model_1/model/block_11_depthwise/depthwise_Add_23_Conv2D_25_depthwise_11_Add_23/y" type="Clamp" version="opset1">
			<data max="6.0" min="0.0"/>
			<input>
				<port id="0">
					<dim>1</dim>
					<dim>1008</dim>
					<dim>16</dim>
					<dim>16</dim>
				</port>
			</input>
			<output>
				<port id="1" names="center_net_mobile_net_v2fpn_feature_extractor/model_1/model/block_11_depthwise_relu/Relu6_StatefulPartitionedCall/center_net_mobile_net_v2fpn_feature_extractor/model_1/model/block_11_depthwise_relu/Relu6_center_net_mobile_net_v2fpn_feature_extractor/model_1/model/block_11_depthwise_BN/FusedBatchNormV3_StatefulPartitionedCall/center_net_mobile_net_v2fpn_feature_extractor/model_1/model/block_11_depthwise_BN/FusedBatchNormV3_center_net_mobile_net_v2fpn_feature_extractor/model_1/model/block_11_expand/Conv2D_StatefulPartitionedCall/center_net_mobile_net_v2fpn_feature_extractor/model_1/model/block_11_expand/Conv2D_center_net_mobile_net_v2fpn_feature_extractor/model_1/model/block_11_depthwise/depthwise_StatefulPartitionedCall/center_net_mobile_net_v2fpn_feature_extractor/model_1/model/block_11_depthwise/depthwise_Add_23_Conv2D_25_depthwise_11_Add_23/y:0" precision="FP32">
					<dim>1</dim>
					<dim>1008</dim>
					<dim>16</dim>
					<dim>16</dim>
				</port>
			</output>
		</layer>
		<layer id="181" name="Conv2D_26/filter:0/Output_0/Data__const" type="Const" version="opset1">
			<data element_type="f32" offset="4243344" shape="168,1008,1,1" size="677376"/>
			<output>
				<port id="0" names="Conv2D_26/filter:0" precision="FP32">
					<dim>168</dim>
					<dim>1008</dim>
					<dim>1</dim>
					<dim>1</dim>
				</port>
			</output>
		</layer>
		<layer id="182" name="Conv__410/WithoutBiases" type="Convolution" version="opset1">
			<data auto_pad="explicit" dilations="1,1" pads_begin="0,0" pads_end="0,0" strides="1,1"/>
			<input>
				<port id="0">
					<dim>1</dim>
					<dim>1008</dim>
					<dim>16</dim>
					<dim>16</dim>
				</port>
				<port id="1">
					<dim>168</dim>
					<dim>1008</dim>
					<dim>1</dim>
					<dim>1</dim>
				</port>
			</input>
			<output>
				<port id="2" precision="FP32">
					<dim>1</dim>
					<dim>168</dim>
					<dim>16</dim>
					<dim>16</dim>
				</port>
			</output>
		</layer>
		<layer id="183" name="Conv__410/Dims48828807/EltwiseUnsqueeze8992_const" type="Const" version="opset1">
			<data element_type="f32" offset="4920720" shape="1,168,1,1" size="672"/>
			<output>
				<port id="0" precision="FP32">
					<dim>1</dim>
					<dim>168</dim>
					<dim>1</dim>
					<dim>1</dim>
				</port>
			</output>
		</layer>
		<layer id="184" name="Conv__410" type="Add" version="opset1">
			<data auto_broadcast="numpy"/>
			<input>
				<port id="0">
					<dim>1</dim>
					<dim>168</dim>
					<dim>16</dim>
					<dim>16</dim>
				</port>
				<port id="1">
					<dim>1</dim>
					<dim>168</dim>
					<dim>1</dim>
					<dim>1</dim>
				</port>
			</input>
			<output>
				<port id="2" names="Conv__410:0" precision="FP32">
					<dim>1</dim>
					<dim>168</dim>
					<dim>16</dim>
					<dim>16</dim>
				</port>
			</output>
		</layer>
		<layer id="185" name="center_net_mobile_net_v2fpn_feature_extractor/model_1/model/block_11_add/add_StatefulPartitionedCall/center_net_mobile_net_v2fpn_feature_extractor/model_1/model/block_11_add/add" type="Add" version="opset1">
			<data auto_broadcast="numpy"/>
			<input>
				<port id="0">
					<dim>1</dim>
					<dim>168</dim>
					<dim>16</dim>
					<dim>16</dim>
				</port>
				<port id="1">
					<dim>1</dim>
					<dim>168</dim>
					<dim>16</dim>
					<dim>16</dim>
				</port>
			</input>
			<output>
				<port id="2" names="center_net_mobile_net_v2fpn_feature_extractor/model_1/model/block_11_add/add_StatefulPartitionedCall/center_net_mobile_net_v2fpn_feature_extractor/model_1/model/block_11_add/add:0" precision="FP32">
					<dim>1</dim>
					<dim>168</dim>
					<dim>16</dim>
					<dim>16</dim>
				</port>
			</output>
		</layer>
		<layer id="186" name="Conv2D_27/filter:0/Output_0/Data__const" type="Const" version="opset1">
			<data element_type="f32" offset="4921392" shape="1008,168,1,1" size="677376"/>
			<output>
				<port id="0" names="Conv2D_27/filter:0" precision="FP32">
					<dim>1008</dim>
					<dim>168</dim>
					<dim>1</dim>
					<dim>1</dim>
				</port>
			</output>
		</layer>
		<layer id="187" name="Conv__413/WithoutBiases" type="Convolution" version="opset1">
			<data auto_pad="explicit" dilations="1,1" pads_begin="0,0" pads_end="0,0" strides="1,1"/>
			<input>
				<port id="0">
					<dim>1</dim>
					<dim>168</dim>
					<dim>16</dim>
					<dim>16</dim>
				</port>
				<port id="1">
					<dim>1008</dim>
					<dim>168</dim>
					<dim>1</dim>
					<dim>1</dim>
				</port>
			</input>
			<output>
				<port id="2" precision="FP32">
					<dim>1</dim>
					<dim>1008</dim>
					<dim>16</dim>
					<dim>16</dim>
				</port>
			</output>
		</layer>
		<layer id="188" name="Conv__413/Dims48228797/EltwiseUnsqueeze8952_const" type="Const" version="opset1">
			<data element_type="f32" offset="5598768" shape="1,1008,1,1" size="4032"/>
			<output>
				<port id="0" precision="FP32">
					<dim>1</dim>
					<dim>1008</dim>
					<dim>1</dim>
					<dim>1</dim>
				</port>
			</output>
		</layer>
		<layer id="189" name="Conv__413" type="Add" version="opset1">
			<data auto_broadcast="numpy"/>
			<input>
				<port id="0">
					<dim>1</dim>
					<dim>1008</dim>
					<dim>16</dim>
					<dim>16</dim>
				</port>
				<port id="1">
					<dim>1</dim>
					<dim>1008</dim>
					<dim>1</dim>
					<dim>1</dim>
				</port>
			</input>
			<output>
				<port id="2" names="Conv__413:0" precision="FP32">
					<dim>1</dim>
					<dim>1008</dim>
					<dim>16</dim>
					<dim>16</dim>
				</port>
			</output>
		</layer>
		<layer id="190" name="center_net_mobile_net_v2fpn_feature_extractor/model_1/model/block_12_expand_relu/Relu6_StatefulPartitionedCall/center_net_mobile_net_v2fpn_feature_extractor/model_1/model/block_12_expand_relu/Relu6_center_net_mobile_net_v2fpn_feature_extractor/model_1/model/block_12_expand_BN/FusedBatchNormV3_StatefulPartitionedCall/center_net_mobile_net_v2fpn_feature_extractor/model_1/model/block_12_expand_BN/FusedBatchNormV3_center_net_mobile_net_v2fpn_feature_extractor/model_1/model/block_11_expand/Conv2D_StatefulPartitionedCall/center_net_mobile_net_v2fpn_feature_extractor/model_1/model/block_11_expand/Conv2D_center_net_mobile_net_v2fpn_feature_extractor/model_1/model/block_12_expand/Conv2D_StatefulPartitionedCall/center_net_mobile_net_v2fpn_feature_extractor/model_1/model/block_12_expand/Conv2D_Add_24_Conv2D_25_Conv2D_27_Add_24/y" type="Clamp" version="opset1">
			<data max="6.0" min="0.0"/>
			<input>
				<port id="0">
					<dim>1</dim>
					<dim>1008</dim>
					<dim>16</dim>
					<dim>16</dim>
				</port>
			</input>
			<output>
				<port id="1" names="center_net_mobile_net_v2fpn_feature_extractor/model_1/model/block_12_expand_relu/Relu6_StatefulPartitionedCall/center_net_mobile_net_v2fpn_feature_extractor/model_1/model/block_12_expand_relu/Relu6_center_net_mobile_net_v2fpn_feature_extractor/model_1/model/block_12_expand_BN/FusedBatchNormV3_StatefulPartitionedCall/center_net_mobile_net_v2fpn_feature_extractor/model_1/model/block_12_expand_BN/FusedBatchNormV3_center_net_mobile_net_v2fpn_feature_extractor/model_1/model/block_11_expand/Conv2D_StatefulPartitionedCall/center_net_mobile_net_v2fpn_feature_extractor/model_1/model/block_11_expand/Conv2D_center_net_mobile_net_v2fpn_feature_extractor/model_1/model/block_12_expand/Conv2D_StatefulPartitionedCall/center_net_mobile_net_v2fpn_feature_extractor/model_1/model/block_12_expand/Conv2D_Add_24_Conv2D_25_Conv2D_27_Add_24/y:0" precision="FP32">
					<dim>1</dim>
					<dim>1008</dim>
					<dim>16</dim>
					<dim>16</dim>
				</port>
			</output>
		</layer>
		<layer id="191" name="2048120484_const" type="Const" version="opset1">
			<data element_type="f32" offset="5602800" shape="1008,1,1,3,3" size="36288"/>
			<output>
				<port id="0" names="const_fold_opt__481" precision="FP32">
					<dim>1008</dim>
					<dim>1</dim>
					<dim>1</dim>
					<dim>3</dim>
					<dim>3</dim>
				</port>
			</output>
		</layer>
		<layer id="192" name="Conv__414/WithoutBiases" type="GroupConvolution" version="opset1">
			<data auto_pad="explicit" dilations="1,1" pads_begin="1,1" pads_end="1,1" strides="1,1"/>
			<input>
				<port id="0">
					<dim>1</dim>
					<dim>1008</dim>
					<dim>16</dim>
					<dim>16</dim>
				</port>
				<port id="1">
					<dim>1008</dim>
					<dim>1</dim>
					<dim>1</dim>
					<dim>3</dim>
					<dim>3</dim>
				</port>
			</input>
			<output>
				<port id="2" precision="FP32">
					<dim>1</dim>
					<dim>1008</dim>
					<dim>16</dim>
					<dim>16</dim>
				</port>
			</output>
		</layer>
		<layer id="193" name="Conv__414/Dims48048794/EltwiseUnsqueeze8940_const" type="Const" version="opset1">
			<data element_type="f32" offset="5639088" shape="1,1008,1,1" size="4032"/>
			<output>
				<port id="0" precision="FP32">
					<dim>1</dim>
					<dim>1008</dim>
					<dim>1</dim>
					<dim>1</dim>
				</port>
			</output>
		</layer>
		<layer id="194" name="Conv__414" type="Add" version="opset1">
			<data auto_broadcast="numpy"/>
			<input>
				<port id="0">
					<dim>1</dim>
					<dim>1008</dim>
					<dim>16</dim>
					<dim>16</dim>
				</port>
				<port id="1">
					<dim>1</dim>
					<dim>1008</dim>
					<dim>1</dim>
					<dim>1</dim>
				</port>
			</input>
			<output>
				<port id="2" names="Conv__414:0" precision="FP32">
					<dim>1</dim>
					<dim>1008</dim>
					<dim>16</dim>
					<dim>16</dim>
				</port>
			</output>
		</layer>
		<layer id="195" name="center_net_mobile_net_v2fpn_feature_extractor/model_1/model/block_12_depthwise_relu/Relu6_StatefulPartitionedCall/center_net_mobile_net_v2fpn_feature_extractor/model_1/model/block_12_depthwise_relu/Relu6_center_net_mobile_net_v2fpn_feature_extractor/model_1/model/block_12_depthwise_BN/FusedBatchNormV3_StatefulPartitionedCall/center_net_mobile_net_v2fpn_feature_extractor/model_1/model/block_12_depthwise_BN/FusedBatchNormV3_center_net_mobile_net_v2fpn_feature_extractor/model_1/model/block_11_expand/Conv2D_StatefulPartitionedCall/center_net_mobile_net_v2fpn_feature_extractor/model_1/model/block_11_expand/Conv2D_center_net_mobile_net_v2fpn_feature_extractor/model_1/model/block_12_depthwise/depthwise_StatefulPartitionedCall/center_net_mobile_net_v2fpn_feature_extractor/model_1/model/block_12_depthwise/depthwise_Add_25_Conv2D_25_depthwise_12_Add_25/y" type="Clamp" version="opset1">
			<data max="6.0" min="0.0"/>
			<input>
				<port id="0">
					<dim>1</dim>
					<dim>1008</dim>
					<dim>16</dim>
					<dim>16</dim>
				</port>
			</input>
			<output>
				<port id="1" names="center_net_mobile_net_v2fpn_feature_extractor/model_1/model/block_12_depthwise_relu/Relu6_StatefulPartitionedCall/center_net_mobile_net_v2fpn_feature_extractor/model_1/model/block_12_depthwise_relu/Relu6_center_net_mobile_net_v2fpn_feature_extractor/model_1/model/block_12_depthwise_BN/FusedBatchNormV3_StatefulPartitionedCall/center_net_mobile_net_v2fpn_feature_extractor/model_1/model/block_12_depthwise_BN/FusedBatchNormV3_center_net_mobile_net_v2fpn_feature_extractor/model_1/model/block_11_expand/Conv2D_StatefulPartitionedCall/center_net_mobile_net_v2fpn_feature_extractor/model_1/model/block_11_expand/Conv2D_center_net_mobile_net_v2fpn_feature_extractor/model_1/model/block_12_depthwise/depthwise_StatefulPartitionedCall/center_net_mobile_net_v2fpn_feature_extractor/model_1/model/block_12_depthwise/depthwise_Add_25_Conv2D_25_depthwise_12_Add_25/y:0" precision="FP32">
					<dim>1</dim>
					<dim>1008</dim>
					<dim>16</dim>
					<dim>16</dim>
				</port>
			</output>
		</layer>
		<layer id="196" name="Conv2D_28/filter:0/Output_0/Data__const" type="Const" version="opset1">
			<data element_type="f32" offset="5643120" shape="168,1008,1,1" size="677376"/>
			<output>
				<port id="0" names="Conv2D_28/filter:0" precision="FP32">
					<dim>168</dim>
					<dim>1008</dim>
					<dim>1</dim>
					<dim>1</dim>
				</port>
			</output>
		</layer>
		<layer id="197" name="Conv__415/WithoutBiases" type="Convolution" version="opset1">
			<data auto_pad="explicit" dilations="1,1" pads_begin="0,0" pads_end="0,0" strides="1,1"/>
			<input>
				<port id="0">
					<dim>1</dim>
					<dim>1008</dim>
					<dim>16</dim>
					<dim>16</dim>
				</port>
				<port id="1">
					<dim>168</dim>
					<dim>1008</dim>
					<dim>1</dim>
					<dim>1</dim>
				</port>
			</input>
			<output>
				<port id="2" precision="FP32">
					<dim>1</dim>
					<dim>168</dim>
					<dim>16</dim>
					<dim>16</dim>
				</port>
			</output>
		</layer>
		<layer id="198" name="Conv__415/Dims50148829/EltwiseUnsqueeze9080_const" type="Const" version="opset1">
			<data element_type="f32" offset="6320496" shape="1,168,1,1" size="672"/>
			<output>
				<port id="0" precision="FP32">
					<dim>1</dim>
					<dim>168</dim>
					<dim>1</dim>
					<dim>1</dim>
				</port>
			</output>
		</layer>
		<layer id="199" name="Conv__415" type="Add" version="opset1">
			<data auto_broadcast="numpy"/>
			<input>
				<port id="0">
					<dim>1</dim>
					<dim>168</dim>
					<dim>16</dim>
					<dim>16</dim>
				</port>
				<port id="1">
					<dim>1</dim>
					<dim>168</dim>
					<dim>1</dim>
					<dim>1</dim>
				</port>
			</input>
			<output>
				<port id="2" names="Conv__415:0" precision="FP32">
					<dim>1</dim>
					<dim>168</dim>
					<dim>16</dim>
					<dim>16</dim>
				</port>
			</output>
		</layer>
		<layer id="200" name="center_net_mobile_net_v2fpn_feature_extractor/model_1/model/block_12_add/add_StatefulPartitionedCall/center_net_mobile_net_v2fpn_feature_extractor/model_1/model/block_12_add/add" type="Add" version="opset1">
			<data auto_broadcast="numpy"/>
			<input>
				<port id="0">
					<dim>1</dim>
					<dim>168</dim>
					<dim>16</dim>
					<dim>16</dim>
				</port>
				<port id="1">
					<dim>1</dim>
					<dim>168</dim>
					<dim>16</dim>
					<dim>16</dim>
				</port>
			</input>
			<output>
				<port id="2" names="center_net_mobile_net_v2fpn_feature_extractor/model_1/model/block_12_add/add_StatefulPartitionedCall/center_net_mobile_net_v2fpn_feature_extractor/model_1/model/block_12_add/add:0" precision="FP32">
					<dim>1</dim>
					<dim>168</dim>
					<dim>16</dim>
					<dim>16</dim>
				</port>
			</output>
		</layer>
		<layer id="201" name="Conv2D_29/filter:0/Output_0/Data__const" type="Const" version="opset1">
			<data element_type="f32" offset="6321168" shape="1008,168,1,1" size="677376"/>
			<output>
				<port id="0" names="Conv2D_29/filter:0" precision="FP32">
					<dim>1008</dim>
					<dim>168</dim>
					<dim>1</dim>
					<dim>1</dim>
				</port>
			</output>
		</layer>
		<layer id="202" name="Conv__416/WithoutBiases" type="Convolution" version="opset1">
			<data auto_pad="explicit" dilations="1,1" pads_begin="0,0" pads_end="0,0" strides="1,1"/>
			<input>
				<port id="0">
					<dim>1</dim>
					<dim>168</dim>
					<dim>16</dim>
					<dim>16</dim>
				</port>
				<port id="1">
					<dim>1008</dim>
					<dim>168</dim>
					<dim>1</dim>
					<dim>1</dim>
				</port>
			</input>
			<output>
				<port id="2" precision="FP32">
					<dim>1</dim>
					<dim>1008</dim>
					<dim>16</dim>
					<dim>16</dim>
				</port>
			</output>
		</layer>
		<layer id="203" name="Conv__416/Dims49788823/EltwiseUnsqueeze9056_const" type="Const" version="opset1">
			<data element_type="f32" offset="6998544" shape="1,1008,1,1" size="4032"/>
			<output>
				<port id="0" precision="FP32">
					<dim>1</dim>
					<dim>1008</dim>
					<dim>1</dim>
					<dim>1</dim>
				</port>
			</output>
		</layer>
		<layer id="204" name="Conv__416" type="Add" version="opset1">
			<data auto_broadcast="numpy"/>
			<input>
				<port id="0">
					<dim>1</dim>
					<dim>1008</dim>
					<dim>16</dim>
					<dim>16</dim>
				</port>
				<port id="1">
					<dim>1</dim>
					<dim>1008</dim>
					<dim>1</dim>
					<dim>1</dim>
				</port>
			</input>
			<output>
				<port id="2" names="Conv__416:0" precision="FP32">
					<dim>1</dim>
					<dim>1008</dim>
					<dim>16</dim>
					<dim>16</dim>
				</port>
			</output>
		</layer>
		<layer id="205" name="center_net_mobile_net_v2fpn_feature_extractor/model_1/model/block_13_expand_relu/Relu6_StatefulPartitionedCall/center_net_mobile_net_v2fpn_feature_extractor/model_1/model/block_13_expand_relu/Relu6_center_net_mobile_net_v2fpn_feature_extractor/model_1/model/block_13_expand_BN/FusedBatchNormV3_StatefulPartitionedCall/center_net_mobile_net_v2fpn_feature_extractor/model_1/model/block_13_expand_BN/FusedBatchNormV3_center_net_mobile_net_v2fpn_feature_extractor/model_1/model/block_11_expand/Conv2D_StatefulPartitionedCall/center_net_mobile_net_v2fpn_feature_extractor/model_1/model/block_11_expand/Conv2D_center_net_mobile_net_v2fpn_feature_extractor/model_1/model/block_13_expand/Conv2D_StatefulPartitionedCall/center_net_mobile_net_v2fpn_feature_extractor/model_1/model/block_13_expand/Conv2D_Add_26_Conv2D_25_Conv2D_29_Add_26/y" type="Clamp" version="opset1">
			<data max="6.0" min="0.0"/>
			<input>
				<port id="0">
					<dim>1</dim>
					<dim>1008</dim>
					<dim>16</dim>
					<dim>16</dim>
				</port>
			</input>
			<output>
				<port id="1" names="center_net_mobile_net_v2fpn_feature_extractor/model_1/model/block_13_expand_relu/Relu6_StatefulPartitionedCall/center_net_mobile_net_v2fpn_feature_extractor/model_1/model/block_13_expand_relu/Relu6_center_net_mobile_net_v2fpn_feature_extractor/model_1/model/block_13_expand_BN/FusedBatchNormV3_StatefulPartitionedCall/center_net_mobile_net_v2fpn_feature_extractor/model_1/model/block_13_expand_BN/FusedBatchNormV3_center_net_mobile_net_v2fpn_feature_extractor/model_1/model/block_11_expand/Conv2D_StatefulPartitionedCall/center_net_mobile_net_v2fpn_feature_extractor/model_1/model/block_11_expand/Conv2D_center_net_mobile_net_v2fpn_feature_extractor/model_1/model/block_13_expand/Conv2D_StatefulPartitionedCall/center_net_mobile_net_v2fpn_feature_extractor/model_1/model/block_13_expand/Conv2D_Add_26_Conv2D_25_Conv2D_29_Add_26/y:0" precision="FP32">
					<dim>1</dim>
					<dim>1008</dim>
					<dim>16</dim>
					<dim>16</dim>
				</port>
			</output>
		</layer>
		<layer id="206" name="2046920472_const" type="Const" version="opset1">
			<data element_type="f32" offset="7002576" shape="1008,1,1,3,3" size="36288"/>
			<output>
				<port id="0" names="const_fold_opt__480" precision="FP32">
					<dim>1008</dim>
					<dim>1</dim>
					<dim>1</dim>
					<dim>3</dim>
					<dim>3</dim>
				</port>
			</output>
		</layer>
		<layer id="207" name="Conv__417/WithoutBiases" type="GroupConvolution" version="opset1">
			<data auto_pad="explicit" dilations="1,1" pads_begin="0,0" pads_end="1,1" strides="2,2"/>
			<input>
				<port id="0">
					<dim>1</dim>
					<dim>1008</dim>
					<dim>16</dim>
					<dim>16</dim>
				</port>
				<port id="1">
					<dim>1008</dim>
					<dim>1</dim>
					<dim>1</dim>
					<dim>3</dim>
					<dim>3</dim>
				</port>
			</input>
			<output>
				<port id="2" precision="FP32">
					<dim>1</dim>
					<dim>1008</dim>
					<dim>8</dim>
					<dim>8</dim>
				</port>
			</output>
		</layer>
		<layer id="208" name="Conv__417/Dims47628787/EltwiseUnsqueeze8912_const" type="Const" version="opset1">
			<data element_type="f32" offset="7038864" shape="1,1008,1,1" size="4032"/>
			<output>
				<port id="0" precision="FP32">
					<dim>1</dim>
					<dim>1008</dim>
					<dim>1</dim>
					<dim>1</dim>
				</port>
			</output>
		</layer>
		<layer id="209" name="Conv__417" type="Add" version="opset1">
			<data auto_broadcast="numpy"/>
			<input>
				<port id="0">
					<dim>1</dim>
					<dim>1008</dim>
					<dim>8</dim>
					<dim>8</dim>
				</port>
				<port id="1">
					<dim>1</dim>
					<dim>1008</dim>
					<dim>1</dim>
					<dim>1</dim>
				</port>
			</input>
			<output>
				<port id="2" names="Conv__417:0" precision="FP32">
					<dim>1</dim>
					<dim>1008</dim>
					<dim>8</dim>
					<dim>8</dim>
				</port>
			</output>
		</layer>
		<layer id="210" name="center_net_mobile_net_v2fpn_feature_extractor/model_1/model/block_13_depthwise_relu/Relu6_StatefulPartitionedCall/center_net_mobile_net_v2fpn_feature_extractor/model_1/model/block_13_depthwise_relu/Relu6_center_net_mobile_net_v2fpn_feature_extractor/model_1/model/block_13_depthwise_BN/FusedBatchNormV3_StatefulPartitionedCall/center_net_mobile_net_v2fpn_feature_extractor/model_1/model/block_13_depthwise_BN/FusedBatchNormV3_center_net_mobile_net_v2fpn_feature_extractor/model_1/model/block_13_depthwise/depthwise_StatefulPartitionedCall/center_net_mobile_net_v2fpn_feature_extractor/model_1/model/block_13_depthwise/depthwise_center_net_mobile_net_v2fpn_feature_extractor/model_1/model/block_11_expand/Conv2D_StatefulPartitionedCall/center_net_mobile_net_v2fpn_feature_extractor/model_1/model/block_11_expand/Conv2D_Add_27_Conv2D_25_depthwise_13_Add_27/y" type="Clamp" version="opset1">
			<data max="6.0" min="0.0"/>
			<input>
				<port id="0">
					<dim>1</dim>
					<dim>1008</dim>
					<dim>8</dim>
					<dim>8</dim>
				</port>
			</input>
			<output>
				<port id="1" names="center_net_mobile_net_v2fpn_feature_extractor/model_1/model/block_13_depthwise_relu/Relu6_StatefulPartitionedCall/center_net_mobile_net_v2fpn_feature_extractor/model_1/model/block_13_depthwise_relu/Relu6_center_net_mobile_net_v2fpn_feature_extractor/model_1/model/block_13_depthwise_BN/FusedBatchNormV3_StatefulPartitionedCall/center_net_mobile_net_v2fpn_feature_extractor/model_1/model/block_13_depthwise_BN/FusedBatchNormV3_center_net_mobile_net_v2fpn_feature_extractor/model_1/model/block_13_depthwise/depthwise_StatefulPartitionedCall/center_net_mobile_net_v2fpn_feature_extractor/model_1/model/block_13_depthwise/depthwise_center_net_mobile_net_v2fpn_feature_extractor/model_1/model/block_11_expand/Conv2D_StatefulPartitionedCall/center_net_mobile_net_v2fpn_feature_extractor/model_1/model/block_11_expand/Conv2D_Add_27_Conv2D_25_depthwise_13_Add_27/y:0" precision="FP32">
					<dim>1</dim>
					<dim>1008</dim>
					<dim>8</dim>
					<dim>8</dim>
				</port>
			</output>
		</layer>
		<layer id="211" name="Conv2D_30/filter:0/Output_0/Data__const" type="Const" version="opset1">
			<data element_type="f32" offset="7042896" shape="280,1008,1,1" size="1128960"/>
			<output>
				<port id="0" names="Conv2D_30/filter:0" precision="FP32">
					<dim>280</dim>
					<dim>1008</dim>
					<dim>1</dim>
					<dim>1</dim>
				</port>
			</output>
		</layer>
		<layer id="212" name="Conv__418/WithoutBiases" type="Convolution" version="opset1">
			<data auto_pad="explicit" dilations="1,1" pads_begin="0,0" pads_end="0,0" strides="1,1"/>
			<input>
				<port id="0">
					<dim>1</dim>
					<dim>1008</dim>
					<dim>8</dim>
					<dim>8</dim>
				</port>
				<port id="1">
					<dim>280</dim>
					<dim>1008</dim>
					<dim>1</dim>
					<dim>1</dim>
				</port>
			</input>
			<output>
				<port id="2" precision="FP32">
					<dim>1</dim>
					<dim>280</dim>
					<dim>8</dim>
					<dim>8</dim>
				</port>
			</output>
		</layer>
		<layer id="213" name="Conv__418/Dims50328832/EltwiseUnsqueeze9092_const" type="Const" version="opset1">
			<data element_type="f32" offset="8171856" shape="1,280,1,1" size="1120"/>
			<output>
				<port id="0" precision="FP32">
					<dim>1</dim>
					<dim>280</dim>
					<dim>1</dim>
					<dim>1</dim>
				</port>
			</output>
		</layer>
		<layer id="214" name="Conv__418" type="Add" version="opset1">
			<data auto_broadcast="numpy"/>
			<input>
				<port id="0">
					<dim>1</dim>
					<dim>280</dim>
					<dim>8</dim>
					<dim>8</dim>
				</port>
				<port id="1">
					<dim>1</dim>
					<dim>280</dim>
					<dim>1</dim>
					<dim>1</dim>
				</port>
			</input>
			<output>
				<port id="2" names="Conv__418:0" precision="FP32">
					<dim>1</dim>
					<dim>280</dim>
					<dim>8</dim>
					<dim>8</dim>
				</port>
			</output>
		</layer>
		<layer id="215" name="Conv2D_31/filter:0/Output_0/Data__const" type="Const" version="opset1">
			<data element_type="f32" offset="8172976" shape="1680,280,1,1" size="1881600"/>
			<output>
				<port id="0" names="Conv2D_31/filter:0" precision="FP32">
					<dim>1680</dim>
					<dim>280</dim>
					<dim>1</dim>
					<dim>1</dim>
				</port>
			</output>
		</layer>
		<layer id="216" name="Conv__421/WithoutBiases" type="Convolution" version="opset1">
			<data auto_pad="explicit" dilations="1,1" pads_begin="0,0" pads_end="0,0" strides="1,1"/>
			<input>
				<port id="0">
					<dim>1</dim>
					<dim>280</dim>
					<dim>8</dim>
					<dim>8</dim>
				</port>
				<port id="1">
					<dim>1680</dim>
					<dim>280</dim>
					<dim>1</dim>
					<dim>1</dim>
				</port>
			</input>
			<output>
				<port id="2" precision="FP32">
					<dim>1</dim>
					<dim>1680</dim>
					<dim>8</dim>
					<dim>8</dim>
				</port>
			</output>
		</layer>
		<layer id="217" name="Conv__421/Dims50268831/EltwiseUnsqueeze9088_const" type="Const" version="opset1">
			<data element_type="f32" offset="10054576" shape="1,1680,1,1" size="6720"/>
			<output>
				<port id="0" precision="FP32">
					<dim>1</dim>
					<dim>1680</dim>
					<dim>1</dim>
					<dim>1</dim>
				</port>
			</output>
		</layer>
		<layer id="218" name="Conv__421" type="Add" version="opset1">
			<data auto_broadcast="numpy"/>
			<input>
				<port id="0">
					<dim>1</dim>
					<dim>1680</dim>
					<dim>8</dim>
					<dim>8</dim>
				</port>
				<port id="1">
					<dim>1</dim>
					<dim>1680</dim>
					<dim>1</dim>
					<dim>1</dim>
				</port>
			</input>
			<output>
				<port id="2" names="Conv__421:0" precision="FP32">
					<dim>1</dim>
					<dim>1680</dim>
					<dim>8</dim>
					<dim>8</dim>
				</port>
			</output>
		</layer>
		<layer id="219" name="center_net_mobile_net_v2fpn_feature_extractor/model_1/model/block_14_expand_relu/Relu6_StatefulPartitionedCall/center_net_mobile_net_v2fpn_feature_extractor/model_1/model/block_14_expand_relu/Relu6_center_net_mobile_net_v2fpn_feature_extractor/model_1/model/block_14_expand_BN/FusedBatchNormV3_StatefulPartitionedCall/center_net_mobile_net_v2fpn_feature_extractor/model_1/model/block_14_expand_BN/FusedBatchNormV3_center_net_mobile_net_v2fpn_feature_extractor/model_1/model/block_14_expand/Conv2D_StatefulPartitionedCall/center_net_mobile_net_v2fpn_feature_extractor/model_1/model/block_14_expand/Conv2D_Add_28_Conv2D_31_Add_28/y" type="Clamp" version="opset1">
			<data max="6.0" min="0.0"/>
			<input>
				<port id="0">
					<dim>1</dim>
					<dim>1680</dim>
					<dim>8</dim>
					<dim>8</dim>
				</port>
			</input>
			<output>
				<port id="1" names="center_net_mobile_net_v2fpn_feature_extractor/model_1/model/block_14_expand_relu/Relu6_StatefulPartitionedCall/center_net_mobile_net_v2fpn_feature_extractor/model_1/model/block_14_expand_relu/Relu6_center_net_mobile_net_v2fpn_feature_extractor/model_1/model/block_14_expand_BN/FusedBatchNormV3_StatefulPartitionedCall/center_net_mobile_net_v2fpn_feature_extractor/model_1/model/block_14_expand_BN/FusedBatchNormV3_center_net_mobile_net_v2fpn_feature_extractor/model_1/model/block_14_expand/Conv2D_StatefulPartitionedCall/center_net_mobile_net_v2fpn_feature_extractor/model_1/model/block_14_expand/Conv2D_Add_28_Conv2D_31_Add_28/y:0" precision="FP32">
					<dim>1</dim>
					<dim>1680</dim>
					<dim>8</dim>
					<dim>8</dim>
				</port>
			</output>
		</layer>
		<layer id="220" name="2052920532_const" type="Const" version="opset1">
			<data element_type="f32" offset="10061296" shape="1680,1,1,3,3" size="60480"/>
			<output>
				<port id="0" names="const_fold_opt__482" precision="FP32">
					<dim>1680</dim>
					<dim>1</dim>
					<dim>1</dim>
					<dim>3</dim>
					<dim>3</dim>
				</port>
			</output>
		</layer>
		<layer id="221" name="Conv__422/WithoutBiases" type="GroupConvolution" version="opset1">
			<data auto_pad="explicit" dilations="1,1" pads_begin="1,1" pads_end="1,1" strides="1,1"/>
			<input>
				<port id="0">
					<dim>1</dim>
					<dim>1680</dim>
					<dim>8</dim>
					<dim>8</dim>
				</port>
				<port id="1">
					<dim>1680</dim>
					<dim>1</dim>
					<dim>1</dim>
					<dim>3</dim>
					<dim>3</dim>
				</port>
			</input>
			<output>
				<port id="2" precision="FP32">
					<dim>1</dim>
					<dim>1680</dim>
					<dim>8</dim>
					<dim>8</dim>
				</port>
			</output>
		</layer>
		<layer id="222" name="Conv__422/Dims49488818/EltwiseUnsqueeze9036_const" type="Const" version="opset1">
			<data element_type="f32" offset="10121776" shape="1,1680,1,1" size="6720"/>
			<output>
				<port id="0" precision="FP32">
					<dim>1</dim>
					<dim>1680</dim>
					<dim>1</dim>
					<dim>1</dim>
				</port>
			</output>
		</layer>
		<layer id="223" name="Conv__422" type="Add" version="opset1">
			<data auto_broadcast="numpy"/>
			<input>
				<port id="0">
					<dim>1</dim>
					<dim>1680</dim>
					<dim>8</dim>
					<dim>8</dim>
				</port>
				<port id="1">
					<dim>1</dim>
					<dim>1680</dim>
					<dim>1</dim>
					<dim>1</dim>
				</port>
			</input>
			<output>
				<port id="2" names="Conv__422:0" precision="FP32">
					<dim>1</dim>
					<dim>1680</dim>
					<dim>8</dim>
					<dim>8</dim>
				</port>
			</output>
		</layer>
		<layer id="224" name="center_net_mobile_net_v2fpn_feature_extractor/model_1/model/block_14_depthwise_relu/Relu6_StatefulPartitionedCall/center_net_mobile_net_v2fpn_feature_extractor/model_1/model/block_14_depthwise_relu/Relu6_center_net_mobile_net_v2fpn_feature_extractor/model_1/model/block_14_depthwise_BN/FusedBatchNormV3_StatefulPartitionedCall/center_net_mobile_net_v2fpn_feature_extractor/model_1/model/block_14_depthwise_BN/FusedBatchNormV3_center_net_mobile_net_v2fpn_feature_extractor/model_1/model/block_14_expand/Conv2D_StatefulPartitionedCall/center_net_mobile_net_v2fpn_feature_extractor/model_1/model/block_14_expand/Conv2D_center_net_mobile_net_v2fpn_feature_extractor/model_1/model/block_14_depthwise/depthwise_StatefulPartitionedCall/center_net_mobile_net_v2fpn_feature_extractor/model_1/model/block_14_depthwise/depthwise_Add_29_Conv2D_31_depthwise_14_Add_29/y" type="Clamp" version="opset1">
			<data max="6.0" min="0.0"/>
			<input>
				<port id="0">
					<dim>1</dim>
					<dim>1680</dim>
					<dim>8</dim>
					<dim>8</dim>
				</port>
			</input>
			<output>
				<port id="1" names="center_net_mobile_net_v2fpn_feature_extractor/model_1/model/block_14_depthwise_relu/Relu6_StatefulPartitionedCall/center_net_mobile_net_v2fpn_feature_extractor/model_1/model/block_14_depthwise_relu/Relu6_center_net_mobile_net_v2fpn_feature_extractor/model_1/model/block_14_depthwise_BN/FusedBatchNormV3_StatefulPartitionedCall/center_net_mobile_net_v2fpn_feature_extractor/model_1/model/block_14_depthwise_BN/FusedBatchNormV3_center_net_mobile_net_v2fpn_feature_extractor/model_1/model/block_14_expand/Conv2D_StatefulPartitionedCall/center_net_mobile_net_v2fpn_feature_extractor/model_1/model/block_14_expand/Conv2D_center_net_mobile_net_v2fpn_feature_extractor/model_1/model/block_14_depthwise/depthwise_StatefulPartitionedCall/center_net_mobile_net_v2fpn_feature_extractor/model_1/model/block_14_depthwise/depthwise_Add_29_Conv2D_31_depthwise_14_Add_29/y:0" precision="FP32">
					<dim>1</dim>
					<dim>1680</dim>
					<dim>8</dim>
					<dim>8</dim>
				</port>
			</output>
		</layer>
		<layer id="225" name="Conv2D_32/filter:0/Output_0/Data__const" type="Const" version="opset1">
			<data element_type="f32" offset="10128496" shape="280,1680,1,1" size="1881600"/>
			<output>
				<port id="0" names="Conv2D_32/filter:0" precision="FP32">
					<dim>280</dim>
					<dim>1680</dim>
					<dim>1</dim>
					<dim>1</dim>
				</port>
			</output>
		</layer>
		<layer id="226" name="Conv__423/WithoutBiases" type="Convolution" version="opset1">
			<data auto_pad="explicit" dilations="1,1" pads_begin="0,0" pads_end="0,0" strides="1,1"/>
			<input>
				<port id="0">
					<dim>1</dim>
					<dim>1680</dim>
					<dim>8</dim>
					<dim>8</dim>
				</port>
				<port id="1">
					<dim>280</dim>
					<dim>1680</dim>
					<dim>1</dim>
					<dim>1</dim>
				</port>
			</input>
			<output>
				<port id="2" precision="FP32">
					<dim>1</dim>
					<dim>280</dim>
					<dim>8</dim>
					<dim>8</dim>
				</port>
			</output>
		</layer>
		<layer id="227" name="Conv__423/Dims47688788/EltwiseUnsqueeze8916_const" type="Const" version="opset1">
…
		<layer id="526" name="stack_4_StatefulPartitionedCall/stack_4_Unsqueeze__357/Dims/Output_0/Data__const" type="Const" version="opset1">
			<data element_type="i64" offset="24770672" shape="1" size="8"/>
			<output>
				<port id="0" precision="I64">
					<dim>1</dim>
				</port>
			</output>
		</layer>
		<layer id="527" name="stack_4_StatefulPartitionedCall/stack_4_Unsqueeze__357/Unsqueeze" type="Unsqueeze" version="opset1">
			<input>
				<port id="0">
					<dim>1</dim>
					<dim>17</dim>
				</port>
				<port id="1">
					<dim>1</dim>
				</port>
			</input>
			<output>
				<port id="2" names="stack_4_StatefulPartitionedCall/stack_4_Unsqueeze__357:0" precision="FP32">
					<dim>1</dim>
					<dim>17</dim>
					<dim>1</dim>
				</port>
			</output>
		</layer>
		<layer id="528" name="Cast_6_StatefulPartitionedCall/Cast_6" type="Convert" version="opset1">
			<data destination_type="f32"/>
			<input>
				<port id="0">
					<dim>1</dim>
					<dim>17</dim>
				</port>
			</input>
			<output>
				<port id="1" names="Cast_6_StatefulPartitionedCall/Cast_6:0" precision="FP32">
					<dim>1</dim>
					<dim>17</dim>
				</port>
			</output>
		</layer>
		<layer id="529" name="unstack_2_StatefulPartitionedCall/unstack_2__354/Dims/Output_0/Data__const" type="Const" version="opset1">
			<data element_type="i64" offset="24770680" shape="1" size="8"/>
			<output>
				<port id="0" precision="I64">
					<dim>1</dim>
				</port>
			</output>
		</layer>
		<layer id="530" name="unstack_2_StatefulPartitionedCall/unstack_2__354" type="Squeeze" version="opset1">
			<input>
				<port id="0">
					<dim>17</dim>
					<dim>1</dim>
				</port>
				<port id="1">
					<dim>1</dim>
				</port>
			</input>
			<output>
				<port id="2" names="unstack_2_StatefulPartitionedCall/unstack_2__354:0" precision="FP32">
					<dim>17</dim>
				</port>
			</output>
		</layer>
		<layer id="531" name="ExpandDims_3_StatefulPartitionedCall/ExpandDims_3/Cast_121088_const" type="Const" version="opset1">
			<data element_type="i64" offset="24953848" shape="2" size="16"/>
			<output>
				<port id="0" names="const_fold_opt__492" precision="I64">
					<dim>2</dim>
				</port>
			</output>
		</layer>
		<layer id="532" name="ExpandDims_3_StatefulPartitionedCall/ExpandDims_3" type="Reshape" version="opset1">
			<data special_zero="true"/>
			<input>
				<port id="0">
					<dim>17</dim>
				</port>
				<port id="1">
					<dim>2</dim>
				</port>
			</input>
			<output>
				<port id="2" names="ExpandDims_3_StatefulPartitionedCall/ExpandDims_3:0" precision="FP32">
					<dim>1</dim>
					<dim>17</dim>
				</port>
			</output>
		</layer>
		<layer id="533" name="add_7_StatefulPartitionedCall/add_7" type="Add" version="opset1">
			<data auto_broadcast="numpy"/>
			<input>
				<port id="0">
					<dim>1</dim>
					<dim>17</dim>
				</port>
				<port id="1">
					<dim>1</dim>
					<dim>17</dim>
				</port>
			</input>
			<output>
				<port id="2" names="add_7_StatefulPartitionedCall/add_7:0" precision="FP32">
					<dim>1</dim>
					<dim>17</dim>
				</port>
			</output>
		</layer>
		<layer id="534" name="stack_4_StatefulPartitionedCall/stack_4_Unsqueeze__358/Dims/Output_0/Data__const" type="Const" version="opset1">
			<data element_type="i64" offset="24770672" shape="1" size="8"/>
			<output>
				<port id="0" precision="I64">
					<dim>1</dim>
				</port>
			</output>
		</layer>
		<layer id="535" name="stack_4_StatefulPartitionedCall/stack_4_Unsqueeze__358/Unsqueeze" type="Unsqueeze" version="opset1">
			<input>
				<port id="0">
					<dim>1</dim>
					<dim>17</dim>
				</port>
				<port id="1">
					<dim>1</dim>
				</port>
			</input>
			<output>
				<port id="2" names="stack_4_StatefulPartitionedCall/stack_4_Unsqueeze__358:0" precision="FP32">
					<dim>1</dim>
					<dim>17</dim>
					<dim>1</dim>
				</port>
			</output>
		</layer>
		<layer id="536" name="stack_4_StatefulPartitionedCall/stack_4_Concat__359" type="Concat" version="opset1">
			<data axis="2"/>
			<input>
				<port id="0">
					<dim>1</dim>
					<dim>17</dim>
					<dim>1</dim>
				</port>
				<port id="1">
					<dim>1</dim>
					<dim>17</dim>
					<dim>1</dim>
				</port>
			</input>
			<output>
				<port id="2" names="stack_4_StatefulPartitionedCall/stack_4_Concat__359:0" precision="FP32">
					<dim>1</dim>
					<dim>17</dim>
					<dim>2</dim>
				</port>
			</output>
		</layer>
		<layer id="537" name="ExpandDims_4_StatefulPartitionedCall/ExpandDims_41/Cast_121126_const" type="Const" version="opset1">
			<data element_type="i64" offset="24953864" shape="4" size="32"/>
			<output>
				<port id="0" names="const_fold_opt__489" precision="I64">
					<dim>4</dim>
				</port>
			</output>
		</layer>
		<layer id="538" name="ExpandDims_4_StatefulPartitionedCall/ExpandDims_41" type="Reshape" version="opset1">
			<data special_zero="true"/>
			<input>
				<port id="0">
					<dim>1</dim>
					<dim>17</dim>
					<dim>2</dim>
				</port>
				<port id="1">
					<dim>4</dim>
				</port>
			</input>
			<output>
				<port id="2" names="ExpandDims_4_StatefulPartitionedCall/ExpandDims_41:0" precision="FP32">
					<dim>1</dim>
					<dim>1</dim>
					<dim>17</dim>
					<dim>2</dim>
				</port>
			</output>
		</layer>
		<layer id="539" name="mul_2_StatefulPartitionedCall/mul_2/y:0/Output_0/Data__const" type="Const" version="opset1">
			<data element_type="f32" offset="24953896" shape="1,1,1,2" size="8"/>
			<output>
				<port id="0" names="mul_2_StatefulPartitionedCall/mul_2/y:0" precision="FP32">
					<dim>1</dim>
					<dim>1</dim>
					<dim>1</dim>
					<dim>2</dim>
				</port>
			</output>
		</layer>
		<layer id="540" name="mul_2_StatefulPartitionedCall/mul_2" type="Multiply" version="opset1">
			<data auto_broadcast="numpy"/>
			<input>
				<port id="0">
					<dim>1</dim>
					<dim>1</dim>
					<dim>17</dim>
					<dim>2</dim>
				</port>
				<port id="1">
					<dim>1</dim>
					<dim>1</dim>
					<dim>1</dim>
					<dim>2</dim>
				</port>
			</input>
			<output>
				<port id="2" names="mul_2_StatefulPartitionedCall/mul_2:0" precision="FP32">
					<dim>1</dim>
					<dim>1</dim>
					<dim>17</dim>
					<dim>2</dim>
				</port>
			</output>
		</layer>
		<layer id="541" name="GatherNd_2_StatefulPartitionedCall/GatherNd_2" type="GatherND" version="opset5">
			<data batch_dims="0"/>
			<input>
				<port id="0">
					<dim>1</dim>
					<dim>64</dim>
					<dim>64</dim>
					<dim>17</dim>
				</port>
				<port id="1">
					<dim>17</dim>
					<dim>4</dim>
				</port>
			</input>
			<output>
				<port id="2" names="GatherNd_2_StatefulPartitionedCall/GatherNd_2:0" precision="FP32">
					<dim>17</dim>
				</port>
			</output>
		</layer>
		<layer id="542" name="ExpandDims_7_StatefulPartitionedCall/ExpandDims_71/Cast_121064_const" type="Const" version="opset1">
			<data element_type="i64" offset="24953904" shape="4" size="32"/>
			<output>
				<port id="0" names="const_fold_opt__487" precision="I64">
					<dim>4</dim>
				</port>
			</output>
		</layer>
		<layer id="543" name="ExpandDims_7_StatefulPartitionedCall/ExpandDims_71" type="Reshape" version="opset1">
			<data special_zero="true"/>
			<input>
				<port id="0">
					<dim>17</dim>
				</port>
				<port id="1">
					<dim>4</dim>
				</port>
			</input>
			<output>
				<port id="2" names="ExpandDims_7_StatefulPartitionedCall/ExpandDims_71:0" precision="FP32">
					<dim>1</dim>
					<dim>1</dim>
					<dim>17</dim>
					<dim>1</dim>
				</port>
			</output>
		</layer>
		<layer id="544" name="Identity" type="Concat" version="opset1">
			<data axis="3"/>
			<input>
				<port id="0">
					<dim>1</dim>
					<dim>1</dim>
					<dim>17</dim>
					<dim>2</dim>
				</port>
				<port id="1">
					<dim>1</dim>
					<dim>1</dim>
					<dim>17</dim>
					<dim>1</dim>
				</port>
			</input>
			<output>
				<port id="2" names="Identity" precision="FP32">
					<dim>1</dim>
					<dim>1</dim>
					<dim>17</dim>
					<dim>3</dim>
				</port>
			</output>
		</layer>
		<layer id="545" name="Identity/sink_port_0" type="Result" version="opset1">
			<input>
				<port id="0">
					<dim>1</dim>
					<dim>1</dim>
					<dim>17</dim>
					<dim>3</dim>
				</port>
			</input>
		</layer>
		<layer id="546" name="7022/sink_port_0" type="Result" version="opset1">
			<input>
				<port id="0">
					<dim>1</dim>
					<dim>1</dim>
					<dim>1</dim>
				</port>
			</input>
		</layer>
		<layer id="547" name="7026/sink_port_0" type="Result" version="opset1">
			<input>
				<port id="0">
					<dim>1</dim>
					<dim>1</dim>
					<dim>17</dim>
				</port>
			</input>
		</layer>
	</layers>
	<edges>
		<edge from-layer="0" from-port="0" to-layer="2" to-port="0"/>
		<edge from-layer="1" from-port="0" to-layer="2" to-port="1"/>
		<edge from-layer="2" from-port="2" to-layer="4" to-port="0"/>
		<edge from-layer="3" from-port="0" to-layer="4" to-port="1"/>
		<edge from-layer="4" from-port="2" to-layer="6" to-port="0"/>
		<edge from-layer="5" from-port="0" to-layer="6" to-port="1"/>
		<edge from-layer="6" from-port="2" to-layer="8" to-port="0"/>
		<edge from-layer="7" from-port="0" to-layer="8" to-port="1"/>
		<edge from-layer="8" from-port="2" to-layer="10" to-port="0"/>
		<edge from-layer="9" from-port="0" to-layer="10" to-port="1"/>
		<edge from-layer="10" from-port="2" to-layer="12" to-port="0"/>
		<edge from-layer="11" from-port="0" to-layer="12" to-port="1"/>
		<edge from-layer="12" from-port="2" to-layer="14" to-port="0"/>
		<edge from-layer="13" from-port="0" to-layer="14" to-port="1"/>
		<edge from-layer="14" from-port="2" to-layer="15" to-port="0"/>
		<edge from-layer="15" from-port="1" to-layer="17" to-port="0"/>
		<edge from-layer="16" from-port="0" to-layer="17" to-port="1"/>
		<edge from-layer="17" from-port="2" to-layer="19" to-port="0"/>
		<edge from-layer="18" from-port="0" to-layer="19" to-port="1"/>
		<edge from-layer="19" from-port="2" to-layer="20" to-port="0"/>
		<edge from-layer="20" from-port="1" to-layer="22" to-port="0"/>
		<edge from-layer="21" from-port="0" to-layer="22" to-port="1"/>
		<edge from-layer="22" from-port="2" to-layer="24" to-port="0"/>
		<edge from-layer="23" from-port="0" to-layer="24" to-port="1"/>
		<edge from-layer="24" from-port="2" to-layer="26" to-port="0"/>
		<edge from-layer="25" from-port="0" to-layer="26" to-port="1"/>
		<edge from-layer="26" from-port="2" to-layer="28" to-port="0"/>
		<edge from-layer="27" from-port="0" to-layer="28" to-port="1"/>
		<edge from-layer="28" from-port="2" to-layer="29" to-port="0"/>
		<edge from-layer="29" from-port="1" to-layer="31" to-port="0"/>
		<edge from-layer="30" from-port="0" to-layer="31" to-port="1"/>
		<edge from-layer="31" from-port="2" to-layer="33" to-port="0"/>
		<edge from-layer="32" from-port="0" to-layer="33" to-port="1"/>
		<edge from-layer="33" from-port="2" to-layer="34" to-port="0"/>
		<edge from-layer="34" from-port="1" to-layer="36" to-port="0"/>
		<edge from-layer="35" from-port="0" to-layer="36" to-port="1"/>
		<edge from-layer="36" from-port="2" to-layer="38" to-port="0"/>
		<edge from-layer="37" from-port="0" to-layer="38" to-port="1"/>
		<edge from-layer="38" from-port="2" to-layer="40" to-port="0"/>
		<edge from-layer="39" from-port="0" to-layer="40" to-port="1"/>
		<edge from-layer="40" from-port="2" to-layer="42" to-port="0"/>
		<edge from-layer="41" from-port="0" to-layer="42" to-port="1"/>
		<edge from-layer="42" from-port="2" to-layer="43" to-port="0"/>
		<edge from-layer="43" from-port="1" to-layer="45" to-port="0"/>
		<edge from-layer="44" from-port="0" to-layer="45" to-port="1"/>
		<edge from-layer="45" from-port="2" to-layer="47" to-port="0"/>
		<edge from-layer="46" from-port="0" to-layer="47" to-port="1"/>
		<edge from-layer="47" from-port="2" to-layer="48" to-port="0"/>
		<edge from-layer="48" from-port="1" to-layer="50" to-port="0"/>
		<edge from-layer="49" from-port="0" to-layer="50" to-port="1"/>
		<edge from-layer="50" from-port="2" to-layer="52" to-port="0"/>
		<edge from-layer="51" from-port="0" to-layer="52" to-port="1"/>
		<edge from-layer="38" from-port="2" to-layer="53" to-port="0"/>
		<edge from-layer="52" from-port="2" to-layer="53" to-port="1"/>
		<edge from-layer="53" from-port="2" to-layer="55" to-port="0"/>
		<edge from-layer="54" from-port="0" to-layer="55" to-port="1"/>
		<edge from-layer="55" from-port="2" to-layer="57" to-port="0"/>
		<edge from-layer="56" from-port="0" to-layer="57" to-port="1"/>
		<edge from-layer="57" from-port="2" to-layer="58" to-port="0"/>
		<edge from-layer="58" from-port="1" to-layer="60" to-port="0"/>
		<edge from-layer="59" from-port="0" to-layer="60" to-port="1"/>
		<edge from-layer="60" from-port="2" to-layer="62" to-port="0"/>
		<edge from-layer="61" from-port="0" to-layer="62" to-port="1"/>
		<edge from-layer="62" from-port="2" to-layer="63" to-port="0"/>
		<edge from-layer="63" from-port="1" to-layer="65" to-port="0"/>
		<edge from-layer="64" from-port="0" to-layer="65" to-port="1"/>
		<edge from-layer="65" from-port="2" to-layer="67" to-port="0"/>
		<edge from-layer="66" from-port="0" to-layer="67" to-port="1"/>
		<edge from-layer="67" from-port="2" to-layer="69" to-port="0"/>
		<edge from-layer="68" from-port="0" to-layer="69" to-port="1"/>
		<edge from-layer="69" from-port="2" to-layer="71" to-port="0"/>
		<edge from-layer="70" from-port="0" to-layer="71" to-port="1"/>
		<edge from-layer="71" from-port="2" to-layer="72" to-port="0"/>
		<edge from-layer="72" from-port="1" to-layer="74" to-port="0"/>
		<edge from-layer="73" from-port="0" to-layer="74" to-port="1"/>
		<edge from-layer="74" from-port="2" to-layer="76" to-port="0"/>
		<edge from-layer="75" from-port="0" to-layer="76" to-port="1"/>
		<edge from-layer="76" from-port="2" to-layer="77" to-port="0"/>
		<edge from-layer="77" from-port="1" to-layer="79" to-port="0"/>
		<edge from-layer="78" from-port="0" to-layer="79" to-port="1"/>
		<edge from-layer="79" from-port="2" to-layer="81" to-port="0"/>
		<edge from-layer="80" from-port="0" to-layer="81" to-port="1"/>
		<edge from-layer="67" from-port="2" to-layer="82" to-port="0"/>
		<edge from-layer="81" from-port="2" to-layer="82" to-port="1"/>
		<edge from-layer="82" from-port="2" to-layer="84" to-port="0"/>
		<edge from-layer="83" from-port="0" to-layer="84" to-port="1"/>
		<edge from-layer="84" from-port="2" to-layer="86" to-port="0"/>
		<edge from-layer="85" from-port="0" to-layer="86" to-port="1"/>
		<edge from-layer="86" from-port="2" to-layer="87" to-port="0"/>
		<edge from-layer="87" from-port="1" to-layer="89" to-port="0"/>
		<edge from-layer="88" from-port="0" to-layer="89" to-port="1"/>
		<edge from-layer="89" from-port="2" to-layer="91" to-port="0"/>
		<edge from-layer="90" from-port="0" to-layer="91" to-port="1"/>
		<edge from-layer="91" from-port="2" to-layer="92" to-port="0"/>
		<edge from-layer="92" from-port="1" to-layer="94" to-port="0"/>
		<edge from-layer="93" from-port="0" to-layer="94" to-port="1"/>
		<edge from-layer="94" from-port="2" to-layer="96" to-port="0"/>
		<edge from-layer="95" from-port="0" to-layer="96" to-port="1"/>
		<edge from-layer="82" from-port="2" to-layer="97" to-port="0"/>
		<edge from-layer="96" from-port="2" to-layer="97" to-port="1"/>
		<edge from-layer="97" from-port="2" to-layer="99" to-port="0"/>
		<edge from-layer="98" from-port="0" to-layer="99" to-port="1"/>
		<edge from-layer="99" from-port="2" to-layer="101" to-port="0"/>
		<edge from-layer="100" from-port="0" to-layer="101" to-port="1"/>
		<edge from-layer="101" from-port="2" to-layer="102" to-port="0"/>
		<edge from-layer="102" from-port="1" to-layer="104" to-port="0"/>
		<edge from-layer="103" from-port="0" to-layer="104" to-port="1"/>
		<edge from-layer="104" from-port="2" to-layer="106" to-port="0"/>
		<edge from-layer="105" from-port="0" to-layer="106" to-port="1"/>
		<edge from-layer="106" from-port="2" to-layer="107" to-port="0"/>
		<edge from-layer="107" from-port="1" to-layer="109" to-port="0"/>
		<edge from-layer="108" from-port="0" to-layer="109" to-port="1"/>
		<edge from-layer="109" from-port="2" to-layer="111" to-port="0"/>
		<edge from-layer="110" from-port="0" to-layer="111" to-port="1"/>
		<edge from-layer="111" from-port="2" to-layer="113" to-port="0"/>
		<edge from-layer="112" from-port="0" to-layer="113" to-port="1"/>
		<edge from-layer="113" from-port="2" to-layer="115" to-port="0"/>
		<edge from-layer="114" from-port="0" to-layer="115" to-port="1"/>
		<edge from-layer="115" from-port="2" to-layer="116" to-port="0"/>
		<edge from-layer="116" from-port="1" to-layer="118" to-port="0"/>
		<edge from-layer="117" from-port="0" to-layer="118" to-port="1"/>
		<edge from-layer="118" from-port="2" to-layer="120" to-port="0"/>
		<edge from-layer="119" from-port="0" to-layer="120" to-port="1"/>
		<edge from-layer="120" from-port="2" to-layer="121" to-port="0"/>
		<edge from-layer="121" from-port="1" to-layer="123" to-port="0"/>
		<edge from-layer="122" from-port="0" to-layer="123" to-port="1"/>
		<edge from-layer="123" from-port="2" to-layer="125" to-port="0"/>
		<edge from-layer="124" from-port="0" to-layer="125" to-port="1"/>
		<edge from-layer="111" from-port="2" to-layer="126" to-port="0"/>
		<edge from-layer="125" from-port="2" to-layer="126" to-port="1"/>
		<edge from-layer="126" from-port="2" to-layer="128" to-port="0"/>
		<edge from-layer="127" from-port="0" to-layer="128" to-port="1"/>
		<edge from-layer="128" from-port="2" to-layer="130" to-port="0"/>
		<edge from-layer="129" from-port="0" to-layer="130" to-port="1"/>
		<edge from-layer="130" from-port="2" to-layer="131" to-port="0"/>
		<edge from-layer="131" from-port="1" to-layer="133" to-port="0"/>
		<edge from-layer="132" from-port="0" to-layer="133" to-port="1"/>
		<edge from-layer="133" from-port="2" to-layer="135" to-port="0"/>
		<edge from-layer="134" from-port="0" to-layer="135" to-port="1"/>
		<edge from-layer="135" from-port="2" to-layer="136" to-port="0"/>
		<edge from-layer="136" from-port="1" to-layer="138" to-port="0"/>
		<edge from-layer="137" from-port="0" to-layer="138" to-port="1"/>
		<edge from-layer="138" from-port="2" to-layer="140" to-port="0"/>
		<edge from-layer="139" from-port="0" to-layer="140" to-port="1"/>
		<edge from-layer="126" from-port="2" to-layer="141" to-port="0"/>
		<edge from-layer="140" from-port="2" to-layer="141" to-port="1"/>
		<edge from-layer="141" from-port="2" to-layer="143" to-port="0"/>
		<edge from-layer="142" from-port="0" to-layer="143" to-port="1"/>
		<edge from-layer="143" from-port="2" to-layer="145" to-port="0"/>
		<edge from-layer="144" from-port="0" to-layer="145" to-port="1"/>
		<edge from-layer="145" from-port="2" to-layer="146" to-port="0"/>
		<edge from-layer="146" from-port="1" to-layer="148" to-port="0"/>
		<edge from-layer="147" from-port="0" to-layer="148" to-port="1"/>
		<edge from-layer="148" from-port="2" to-layer="150" to-port="0"/>
		<edge from-layer="149" from-port="0" to-layer="150" to-port="1"/>
		<edge from-layer="150" from-port="2" to-layer="151" to-port="0"/>
		<edge from-layer="151" from-port="1" to-layer="153" to-port="0"/>
		<edge from-layer="152" from-port="0" to-layer="153" to-port="1"/>
		<edge from-layer="153" from-port="2" to-layer="155" to-port="0"/>
		<edge from-layer="154" from-port="0" to-layer="155" to-port="1"/>
		<edge from-layer="141" from-port="2" to-layer="156" to-port="0"/>
		<edge from-layer="155" from-port="2" to-layer="156" to-port="1"/>
		<edge from-layer="156" from-port="2" to-layer="158" to-port="0"/>
		<edge from-layer="157" from-port="0" to-layer="158" to-port="1"/>
		<edge from-layer="158" from-port="2" to-layer="160" to-port="0"/>
		<edge from-layer="159" from-port="0" to-layer="160" to-port="1"/>
		<edge from-layer="160" from-port="2" to-layer="161" to-port="0"/>
		<edge from-layer="161" from-port="1" to-layer="163" to-port="0"/>
		<edge from-layer="162" from-port="0" to-layer="163" to-port="1"/>
		<edge from-layer="163" from-port="2" to-layer="165" to-port="0"/>
		<edge from-layer="164" from-port="0" to-layer="165" to-port="1"/>
		<edge from-layer="165" from-port="2" to-layer="166" to-port="0"/>
		<edge from-layer="166" from-port="1" to-layer="168" to-port="0"/>
		<edge from-layer="167" from-port="0" to-layer="168" to-port="1"/>
		<edge from-layer="168" from-port="2" to-layer="170" to-port="0"/>
		<edge from-layer="169" from-port="0" to-layer="170" to-port="1"/>
		<edge from-layer="170" from-port="2" to-layer="172" to-port="0"/>
		<edge from-layer="171" from-port="0" to-layer="172" to-port="1"/>
		<edge from-layer="172" from-port="2" to-layer="174" to-port="0"/>
		<edge from-layer="173" from-port="0" to-layer="174" to-port="1"/>
		<edge from-layer="174" from-port="2" to-layer="175" to-port="0"/>
		<edge from-layer="175" from-port="1" to-layer="177" to-port="0"/>
		<edge from-layer="176" from-port="0" to-layer="177" to-port="1"/>
		<edge from-layer="177" from-port="2" to-layer="179" to-port="0"/>
		<edge from-layer="178" from-port="0" to-layer="179" to-port="1"/>
		<edge from-layer="179" from-port="2" to-layer="180" to-port="0"/>
		<edge from-layer="180" from-port="1" to-layer="182" to-port="0"/>
		<edge from-layer="181" from-port="0" to-layer="182" to-port="1"/>
		<edge from-layer="182" from-port="2" to-layer="184" to-port="0"/>
		<edge from-layer="183" from-port="0" to-layer="184" to-port="1"/>
		<edge from-layer="170" from-port="2" to-layer="185" to-port="0"/>
		<edge from-layer="184" from-port="2" to-layer="185" to-port="1"/>
		<edge from-layer="185" from-port="2" to-layer="187" to-port="0"/>
		<edge from-layer="186" from-port="0" to-layer="187" to-port="1"/>
		<edge from-layer="187" from-port="2" to-layer="189" to-port="0"/>
		<edge from-layer="188" from-port="0" to-layer="189" to-port="1"/>
		<edge from-layer="189" from-port="2" to-layer="190" to-port="0"/>
		<edge from-layer="190" from-port="1" to-layer="192" to-port="0"/>
		<edge from-layer="191" from-port="0" to-layer="192" to-port="1"/>
		<edge from-layer="192" from-port="2" to-layer="194" to-port="0"/>
		<edge from-layer="193" from-port="0" to-layer="194" to-port="1"/>
		<edge from-layer="194" from-port="2" to-layer="195" to-port="0"/>
		<edge from-layer="195" from-port="1" to-layer="197" to-port="0"/>
		<edge from-layer="196" from-port="0" to-layer="197" to-port="1"/>
		<edge from-layer="197" from-port="2" to-layer="199" to-port="0"/>
		<edge from-layer="198" from-port="0" to-layer="199" to-port="1"/>
		<edge from-layer="185" from-port="2" to-layer="200" to-port="0"/>
		<edge from-layer="199" from-port="2" to-layer="200" to-port="1"/>
		<edge from-layer="200" from-port="2" to-layer="202" to-port="0"/>
		<edge from-layer="201" from-port="0" to-layer="202" to-port="1"/>
		<edge from-layer="202" from-port="2" to-layer="204" to-port="0"/>
		<edge from-layer="203" from-port="0" to-layer="204" to-port="1"/>
		<edge from-layer="204" from-port="2" to-layer="205" to-port="0"/>
		<edge from-layer="205" from-port="1" to-layer="207" to-port="0"/>
		<edge from-layer="206" from-port="0" to-layer="207" to-port="1"/>
		<edge from-layer="207" from-port="2" to-layer="209" to-port="0"/>
		<edge from-layer="208" from-port="0" to-layer="209" to-port="1"/>
		<edge from-layer="209" from-port="2" to-layer="210" to-port="0"/>
		<edge from-layer="210" from-port="1" to-layer="212" to-port="0"/>
		<edge from-layer="211" from-port="0" to-layer="212" to-port="1"/>
		<edge from-layer="212" from-port="2" to-layer="214" to-port="0"/>
		<edge from-layer="213" from-port="0" to-layer="214" to-port="1"/>
		<edge from-layer="214" from-port="2" to-layer="216" to-port="0"/>
		<edge from-layer="215" from-port="0" to-layer="216" to-port="1"/>
		<edge from-layer="216" from-port="2" to-layer="218" to-port="0"/>
		<edge from-layer="217" from-port="0" to-layer="218" to-port="1"/>
		<edge from-layer="218" from-port="2" to-layer="219" to-port="0"/>
		<edge from-layer="219" from-port="1" to-layer="221" to-port="0"/>
		<edge from-layer="220" from-port="0" to-layer="221" to-port="1"/>
		<edge from-layer="221" from-port="2" to-layer="223" to-port="0"/>
		<edge from-layer="222" from-port="0" to-layer="223" to-port="1"/>
		<edge from-layer="223" from-port="2" to-layer="224" to-port="0"/>
		<edge from-layer="224" from-port="1" to-layer="226" to-port="0"/>
		<edge from-layer="225" from-port="0" to-layer="226" to-port="1"/>
		<edge from-layer="226" from-port="2" to-layer="228" to-port="0"/>
		<edge from-layer="227" from-port="0" to-layer="228" to-port="1"/>
		<edge from-layer="214" from-port="2" to-layer="229" to-port="0"/>
		<edge from-layer="228" from-port="2" to-layer="229" to-port="1"/>
		<edge from-layer="229" from-port="2" to-layer="231" to-port="0"/>
		<edge from-layer="230" from-port="0" to-layer="231" to-port="1"/>
		<edge from-layer="231" from-port="2" to-layer="233" to-port="0"/>
		<edge from-layer="232" from-port="0" to-layer="233" to-port="1"/>
		<edge from-layer="233" from-port="2" to-layer="234" to-port="0"/>
		<edge from-layer="234" from-port="1" to-layer="236" to-port="0"/>
		<edge from-layer="235" from-port="0" to-layer="236" to-port="1"/>
		<edge from-layer="236" from-port="2" to-layer="238" to-port="0"/>
		<edge from-layer="237" from-port="0" to-layer="238" to-port="1"/>
		<edge from-layer="238" from-port="2" to-layer="239" to-port="0"/>
		<edge from-layer="239" from-port="1" to-layer="241" to-port="0"/>
		<edge from-layer="240" from-port="0" to-layer="241" to-port="1"/>
		<edge from-layer="241" from-port="2" to-layer="243" to-port="0"/>
		<edge from-layer="242" from-port="0" to-layer="243" to-port="1"/>
		<edge from-layer="229" from-port="2" to-layer="244" to-port="0"/>
		<edge from-layer="243" from-port="2" to-layer="244" to-port="1"/>
		<edge from-layer="244" from-port="2" to-layer="246" to-port="0"/>
		<edge from-layer="245" from-port="0" to-layer="246" to-port="1"/>
		<edge from-layer="246" from-port="2" to-layer="248" to-port="0"/>
		<edge from-layer="247" from-port="0" to-layer="248" to-port="1"/>
		<edge from-layer="248" from-port="2" to-layer="249" to-port="0"/>
		<edge from-layer="249" from-port="1" to-layer="251" to-port="0"/>
		<edge from-layer="250" from-port="0" to-layer="251" to-port="1"/>
		<edge from-layer="251" from-port="2" to-layer="253" to-port="0"/>
		<edge from-layer="252" from-port="0" to-layer="253" to-port="1"/>
		<edge from-layer="253" from-port="2" to-layer="254" to-port="0"/>
		<edge from-layer="254" from-port="1" to-layer="256" to-port="0"/>
		<edge from-layer="255" from-port="0" to-layer="256" to-port="1"/>
		<edge from-layer="256" from-port="2" to-layer="258" to-port="0"/>
		<edge from-layer="257" from-port="0" to-layer="258" to-port="1"/>
		<edge from-layer="258" from-port="2" to-layer="260" to-port="0"/>
		<edge from-layer="259" from-port="0" to-layer="260" to-port="1"/>
		<edge from-layer="260" from-port="2" to-layer="262" to-port="0"/>
		<edge from-layer="261" from-port="0" to-layer="262" to-port="1"/>
		<edge from-layer="262" from-port="2" to-layer="263" to-port="0"/>
		<edge from-layer="263" from-port="1" to-layer="265" to-port="0"/>
		<edge from-layer="264" from-port="0" to-layer="265" to-port="1"/>
		<edge from-layer="265" from-port="2" to-layer="267" to-port="0"/>
		<edge from-layer="266" from-port="0" to-layer="267" to-port="1"/>
		<edge from-layer="267" from-port="2" to-layer="268" to-port="0"/>
		<edge from-layer="268" from-port="1" to-layer="272" to-port="0"/>
		<edge from-layer="269" from-port="0" to-layer="272" to-port="1"/>
		<edge from-layer="270" from-port="0" to-layer="272" to-port="2"/>
		<edge from-layer="271" from-port="0" to-layer="272" to-port="3"/>
		<edge from-layer="272" from-port="4" to-layer="274" to-port="0"/>
		<edge from-layer="273" from-port="0" to-layer="274" to-port="1"/>
		<edge from-layer="274" from-port="2" to-layer="278" to-port="0"/>
		<edge from-layer="275" from-port="0" to-layer="278" to-port="1"/>
		<edge from-layer="276" from-port="0" to-layer="278" to-port="2"/>
		<edge from-layer="277" from-port="0" to-layer="278" to-port="3"/>
		<edge from-layer="274" from-port="2" to-layer="279" to-port="0"/>
		<edge from-layer="267" from-port="2" to-layer="280" to-port="0"/>
		<edge from-layer="280" from-port="1" to-layer="281" to-port="0"/>
		<edge from-layer="279" from-port="1" to-layer="282" to-port="0"/>
		<edge from-layer="281" from-port="1" to-layer="282" to-port="1"/>
		<edge from-layer="282" from-port="2" to-layer="284" to-port="0"/>
		<edge from-layer="283" from-port="0" to-layer="284" to-port="1"/>
		<edge from-layer="284" from-port="2" to-layer="288" to-port="0"/>
		<edge from-layer="285" from-port="0" to-layer="288" to-port="1"/>
		<edge from-layer="286" from-port="0" to-layer="288" to-port="2"/>
		<edge from-layer="287" from-port="0" to-layer="288" to-port="3"/>
		<edge from-layer="267" from-port="2" to-layer="290" to-port="0"/>
		<edge from-layer="278" from-port="4" to-layer="290" to-port="1"/>
		<edge from-layer="288" from-port="4" to-layer="290" to-port="2"/>
		<edge from-layer="289" from-port="0" to-layer="290" to-port="3"/>
		<edge from-layer="156" from-port="2" to-layer="292" to-port="0"/>
		<edge from-layer="291" from-port="0" to-layer="292" to-port="1"/>
		<edge from-layer="292" from-port="2" to-layer="294" to-port="0"/>
		<edge from-layer="293" from-port="0" to-layer="294" to-port="1"/>
		<edge from-layer="290" from-port="4" to-layer="295" to-port="0"/>
		<edge from-layer="294" from-port="2" to-layer="295" to-port="1"/>
		<edge from-layer="295" from-port="2" to-layer="297" to-port="0"/>
		<edge from-layer="296" from-port="0" to-layer="297" to-port="1"/>
		<edge from-layer="297" from-port="2" to-layer="299" to-port="0"/>
		<edge from-layer="298" from-port="0" to-layer="299" to-port="1"/>
		<edge from-layer="299" from-port="2" to-layer="301" to-port="0"/>
		<edge from-layer="300" from-port="0" to-layer="301" to-port="1"/>
		<edge from-layer="301" from-port="2" to-layer="302" to-port="0"/>
		<edge from-layer="302" from-port="1" to-layer="303" to-port="0"/>
		<edge from-layer="303" from-port="1" to-layer="307" to-port="0"/>
		<edge from-layer="304" from-port="0" to-layer="307" to-port="1"/>
		<edge from-layer="305" from-port="0" to-layer="307" to-port="2"/>
		<edge from-layer="306" from-port="0" to-layer="307" to-port="3"/>
		<edge from-layer="307" from-port="4" to-layer="309" to-port="0"/>
		<edge from-layer="308" from-port="0" to-layer="309" to-port="1"/>
		<edge from-layer="309" from-port="2" to-layer="313" to-port="0"/>
		<edge from-layer="310" from-port="0" to-layer="313" to-port="1"/>
		<edge from-layer="311" from-port="0" to-layer="313" to-port="2"/>
		<edge from-layer="312" from-port="0" to-layer="313" to-port="3"/>
		<edge from-layer="309" from-port="2" to-layer="314" to-port="0"/>
		<edge from-layer="302" from-port="1" to-layer="315" to-port="0"/>
		<edge from-layer="315" from-port="1" to-layer="316" to-port="0"/>
		<edge from-layer="314" from-port="1" to-layer="317" to-port="0"/>
		<edge from-layer="316" from-port="1" to-layer="317" to-port="1"/>
		<edge from-layer="317" from-port="2" to-layer="319" to-port="0"/>
		<edge from-layer="318" from-port="0" to-layer="319" to-port="1"/>
		<edge from-layer="319" from-port="2" to-layer="323" to-port="0"/>
		<edge from-layer="320" from-port="0" to-layer="323" to-port="1"/>
		<edge from-layer="321" from-port="0" to-layer="323" to-port="2"/>
		<edge from-layer="322" from-port="0" to-layer="323" to-port="3"/>
		<edge from-layer="302" from-port="1" to-layer="325" to-port="0"/>
		<edge from-layer="313" from-port="4" to-layer="325" to-port="1"/>
		<edge from-layer="323" from-port="4" to-layer="325" to-port="2"/>
		<edge from-layer="324" from-port="0" to-layer="325" to-port="3"/>
		<edge from-layer="97" from-port="2" to-layer="327" to-port="0"/>
		<edge from-layer="326" from-port="0" to-layer="327" to-port="1"/>
		<edge from-layer="327" from-port="2" to-layer="329" to-port="0"/>
		<edge from-layer="328" from-port="0" to-layer="329" to-port="1"/>
		<edge from-layer="325" from-port="4" to-layer="330" to-port="0"/>
		<edge from-layer="329" from-port="2" to-layer="330" to-port="1"/>
		<edge from-layer="330" from-port="2" to-layer="332" to-port="0"/>
		<edge from-layer="331" from-port="0" to-layer="332" to-port="1"/>
		<edge from-layer="332" from-port="2" to-layer="334" to-port="0"/>
		<edge from-layer="333" from-port="0" to-layer="334" to-port="1"/>
		<edge from-layer="334" from-port="2" to-layer="336" to-port="0"/>
		<edge from-layer="335" from-port="0" to-layer="336" to-port="1"/>
		<edge from-layer="336" from-port="2" to-layer="337" to-port="0"/>
		<edge from-layer="337" from-port="1" to-layer="338" to-port="0"/>
		<edge from-layer="338" from-port="1" to-layer="342" to-port="0"/>
		<edge from-layer="339" from-port="0" to-layer="342" to-port="1"/>
		<edge from-layer="340" from-port="0" to-layer="342" to-port="2"/>
		<edge from-layer="341" from-port="0" to-layer="342" to-port="3"/>
		<edge from-layer="342" from-port="4" to-layer="344" to-port="0"/>
		<edge from-layer="343" from-port="0" to-layer="344" to-port="1"/>
		<edge from-layer="344" from-port="2" to-layer="348" to-port="0"/>
		<edge from-layer="345" from-port="0" to-layer="348" to-port="1"/>
		<edge from-layer="346" from-port="0" to-layer="348" to-port="2"/>
		<edge from-layer="347" from-port="0" to-layer="348" to-port="3"/>
		<edge from-layer="344" from-port="2" to-layer="349" to-port="0"/>
		<edge from-layer="337" from-port="1" to-layer="350" to-port="0"/>
		<edge from-layer="350" from-port="1" to-layer="351" to-port="0"/>
		<edge from-layer="349" from-port="1" to-layer="352" to-port="0"/>
		<edge from-layer="351" from-port="1" to-layer="352" to-port="1"/>
		<edge from-layer="352" from-port="2" to-layer="354" to-port="0"/>
		<edge from-layer="353" from-port="0" to-layer="354" to-port="1"/>
		<edge from-layer="354" from-port="2" to-layer="358" to-port="0"/>
		<edge from-layer="355" from-port="0" to-layer="358" to-port="1"/>
		<edge from-layer="356" from-port="0" to-layer="358" to-port="2"/>
		<edge from-layer="357" from-port="0" to-layer="358" to-port="3"/>
		<edge from-layer="337" from-port="1" to-layer="360" to-port="0"/>
		<edge from-layer="348" from-port="4" to-layer="360" to-port="1"/>
		<edge from-layer="358" from-port="4" to-layer="360" to-port="2"/>
		<edge from-layer="359" from-port="0" to-layer="360" to-port="3"/>
		<edge from-layer="53" from-port="2" to-layer="362" to-port="0"/>
		<edge from-layer="361" from-port="0" to-layer="362" to-port="1"/>
		<edge from-layer="362" from-port="2" to-layer="364" to-port="0"/>
		<edge from-layer="363" from-port="0" to-layer="364" to-port="1"/>
		<edge from-layer="360" from-port="4" to-layer="365" to-port="0"/>
		<edge from-layer="364" from-port="2" to-layer="365" to-port="1"/>
		<edge from-layer="365" from-port="2" to-layer="367" to-port="0"/>
		<edge from-layer="366" from-port="0" to-layer="367" to-port="1"/>
		<edge from-layer="367" from-port="2" to-layer="369" to-port="0"/>
		<edge from-layer="368" from-port="0" to-layer="369" to-port="1"/>
		<edge from-layer="369" from-port="2" to-layer="371" to-port="0"/>
		<edge from-layer="370" from-port="0" to-layer="371" to-port="1"/>
		<edge from-layer="371" from-port="2" to-layer="372" to-port="0"/>
		<edge from-layer="372" from-port="1" to-layer="374" to-port="0"/>
		<edge from-layer="373" from-port="0" to-layer="374" to-port="1"/>
		<edge from-layer="374" from-port="2" to-layer="376" to-port="0"/>
		<edge from-layer="375" from-port="0" to-layer="376" to-port="1"/>
		<edge from-layer="376" from-port="2" to-layer="378" to-port="0"/>
		<edge from-layer="377" from-port="0" to-layer="378" to-port="1"/>
		<edge from-layer="378" from-port="2" to-layer="379" to-port="0"/>
		<edge from-layer="379" from-port="1" to-layer="381" to-port="0"/>
		<edge from-layer="380" from-port="0" to-layer="381" to-port="1"/>
		<edge from-layer="381" from-port="2" to-layer="383" to-port="0"/>
		<edge from-layer="382" from-port="0" to-layer="383" to-port="1"/>
		<edge from-layer="383" from-port="2" to-layer="384" to-port="0"/>
		<edge from-layer="384" from-port="1" to-layer="386" to-port="0"/>
		<edge from-layer="385" from-port="0" to-layer="386" to-port="1"/>
		<edge from-layer="372" from-port="1" to-layer="389" to-port="0"/>
		<edge from-layer="388" from-port="0" to-layer="389" to-port="1"/>
		<edge from-layer="389" from-port="2" to-layer="391" to-port="0"/>
		<edge from-layer="390" from-port="0" to-layer="391" to-port="1"/>
		<edge from-layer="391" from-port="2" to-layer="393" to-port="0"/>
		<edge from-layer="392" from-port="0" to-layer="393" to-port="1"/>
		<edge from-layer="393" from-port="2" to-layer="394" to-port="0"/>
		<edge from-layer="394" from-port="1" to-layer="396" to-port="0"/>
		<edge from-layer="395" from-port="0" to-layer="396" to-port="1"/>
		<edge from-layer="396" from-port="2" to-layer="398" to-port="0"/>
		<edge from-layer="397" from-port="0" to-layer="398" to-port="1"/>
		<edge from-layer="398" from-port="2" to-layer="399" to-port="0"/>
		<edge from-layer="399" from-port="1" to-layer="401" to-port="0"/>
		<edge from-layer="400" from-port="0" to-layer="401" to-port="1"/>
		<edge from-layer="401" from-port="2" to-layer="403" to-port="0"/>
		<edge from-layer="402" from-port="0" to-layer="403" to-port="1"/>
		<edge from-layer="403" from-port="2" to-layer="405" to-port="0"/>
		<edge from-layer="404" from-port="0" to-layer="405" to-port="1"/>
		<edge from-layer="405" from-port="2" to-layer="407" to-port="0"/>
		<edge from-layer="406" from-port="0" to-layer="407" to-port="1"/>
		<edge from-layer="407" from-port="3" to-layer="409" to-port="0"/>
		<edge from-layer="408" from-port="0" to-layer="409" to-port="1"/>
		<edge from-layer="409" from-port="2" to-layer="410" to-port="0"/>
		<edge from-layer="410" from-port="1" to-layer="412" to-port="0"/>
		<edge from-layer="411" from-port="0" to-layer="412" to-port="1"/>
		<edge from-layer="412" from-port="2" to-layer="413" to-port="0"/>
		<edge from-layer="372" from-port="1" to-layer="415" to-port="0"/>
		<edge from-layer="414" from-port="0" to-layer="415" to-port="1"/>
		<edge from-layer="415" from-port="2" to-layer="417" to-port="0"/>
		<edge from-layer="416" from-port="0" to-layer="417" to-port="1"/>
		<edge from-layer="417" from-port="2" to-layer="419" to-port="0"/>
		<edge from-layer="418" from-port="0" to-layer="419" to-port="1"/>
		<edge from-layer="419" from-port="2" to-layer="420" to-port="0"/>
		<edge from-layer="420" from-port="1" to-layer="422" to-port="0"/>
		<edge from-layer="421" from-port="0" to-layer="422" to-port="1"/>
		<edge from-layer="422" from-port="2" to-layer="424" to-port="0"/>
		<edge from-layer="423" from-port="0" to-layer="424" to-port="1"/>
		<edge from-layer="424" from-port="2" to-layer="426" to-port="0"/>
		<edge from-layer="425" from-port="0" to-layer="426" to-port="1"/>
		<edge from-layer="412" from-port="2" to-layer="429" to-port="0"/>
		<edge from-layer="428" from-port="0" to-layer="429" to-port="1"/>
		<edge from-layer="429" from-port="2" to-layer="431" to-port="0"/>
		<edge from-layer="430" from-port="0" to-layer="431" to-port="1"/>
		<edge from-layer="412" from-port="2" to-layer="433" to-port="0"/>
		<edge from-layer="432" from-port="0" to-layer="433" to-port="1"/>
		<edge from-layer="410" from-port="1" to-layer="434" to-port="0"/>
		<edge from-layer="433" from-port="2" to-layer="434" to-port="1"/>
		<edge from-layer="434" from-port="2" to-layer="436" to-port="0"/>
		<edge from-layer="435" from-port="0" to-layer="436" to-port="1"/>
		<edge from-layer="436" from-port="2" to-layer="438" to-port="0"/>
		<edge from-layer="437" from-port="0" to-layer="438" to-port="1"/>
		<edge from-layer="427" from-port="0" to-layer="439" to-port="0"/>
		<edge from-layer="431" from-port="2" to-layer="439" to-port="1"/>
		<edge from-layer="438" from-port="2" to-layer="439" to-port="2"/>
		<edge from-layer="439" from-port="3" to-layer="440" to-port="0"/>
		<edge from-layer="426" from-port="2" to-layer="441" to-port="0"/>
		<edge from-layer="440" from-port="1" to-layer="441" to-port="1"/>
		<edge from-layer="441" from-port="2" to-layer="443" to-port="0"/>
		<edge from-layer="442" from-port="0" to-layer="443" to-port="1"/>
		<edge from-layer="443" from-port="2" to-layer="445" to-port="0"/>
		<edge from-layer="444" from-port="0" to-layer="445" to-port="1"/>
		<edge from-layer="445" from-port="2" to-layer="447" to-port="0"/>
		<edge from-layer="446" from-port="0" to-layer="447" to-port="1"/>
		<edge from-layer="447" from-port="2" to-layer="449" to-port="0"/>
		<edge from-layer="448" from-port="0" to-layer="449" to-port="1"/>
		<edge from-layer="413" from-port="1" to-layer="450" to-port="0"/>
		<edge from-layer="449" from-port="2" to-layer="450" to-port="1"/>
		<edge from-layer="450" from-port="2" to-layer="451" to-port="0"/>
		<edge from-layer="451" from-port="1" to-layer="453" to-port="0"/>
		<edge from-layer="452" from-port="0" to-layer="453" to-port="1"/>
		<edge from-layer="387" from-port="0" to-layer="454" to-port="0"/>
		<edge from-layer="453" from-port="2" to-layer="454" to-port="1"/>
		<edge from-layer="454" from-port="2" to-layer="455" to-port="0"/>
		<edge from-layer="454" from-port="2" to-layer="455" to-port="1"/>
		<edge from-layer="434" from-port="2" to-layer="457" to-port="0"/>
		<edge from-layer="445" from-port="3" to-layer="459" to-port="0"/>
		<edge from-layer="458" from-port="0" to-layer="459" to-port="1"/>
		<edge from-layer="459" from-port="2" to-layer="461" to-port="0"/>
		<edge from-layer="460" from-port="0" to-layer="461" to-port="1"/>
		<edge from-layer="457" from-port="1" to-layer="462" to-port="0"/>
		<edge from-layer="461" from-port="2" to-layer="462" to-port="1"/>
		<edge from-layer="462" from-port="2" to-layer="463" to-port="0"/>
		<edge from-layer="463" from-port="1" to-layer="465" to-port="0"/>
		<edge from-layer="464" from-port="0" to-layer="465" to-port="1"/>
		<edge from-layer="456" from-port="0" to-layer="466" to-port="0"/>
		<edge from-layer="465" from-port="2" to-layer="466" to-port="1"/>
		<edge from-layer="466" from-port="2" to-layer="467" to-port="0"/>
		<edge from-layer="466" from-port="2" to-layer="467" to-port="1"/>
		<edge from-layer="455" from-port="2" to-layer="468" to-port="0"/>
		<edge from-layer="467" from-port="2" to-layer="468" to-port="1"/>
		<edge from-layer="468" from-port="2" to-layer="470" to-port="0"/>
		<edge from-layer="469" from-port="0" to-layer="470" to-port="1"/>
		<edge from-layer="470" from-port="2" to-layer="472" to-port="0"/>
		<edge from-layer="471" from-port="0" to-layer="472" to-port="1"/>
		<edge from-layer="472" from-port="2" to-layer="474" to-port="0"/>
		<edge from-layer="473" from-port="0" to-layer="474" to-port="1"/>
		<edge from-layer="474" from-port="2" to-layer="476" to-port="0"/>
		<edge from-layer="475" from-port="0" to-layer="476" to-port="1"/>
		<edge from-layer="386" from-port="2" to-layer="477" to-port="0"/>
		<edge from-layer="476" from-port="2" to-layer="477" to-port="1"/>
		<edge from-layer="477" from-port="2" to-layer="479" to-port="0"/>
		<edge from-layer="478" from-port="0" to-layer="479" to-port="1"/>
		<edge from-layer="479" from-port="2" to-layer="481" to-port="0"/>
		<edge from-layer="480" from-port="0" to-layer="481" to-port="1"/>
		<edge from-layer="481" from-port="3" to-layer="483" to-port="0"/>
		<edge from-layer="482" from-port="0" to-layer="483" to-port="1"/>
		<edge from-layer="483" from-port="2" to-layer="484" to-port="0"/>
		<edge from-layer="484" from-port="1" to-layer="486" to-port="0"/>
		<edge from-layer="485" from-port="0" to-layer="486" to-port="1"/>
		<edge from-layer="486" from-port="2" to-layer="487" to-port="0"/>
		<edge from-layer="372" from-port="1" to-layer="489" to-port="0"/>
		<edge from-layer="488" from-port="0" to-layer="489" to-port="1"/>
		<edge from-layer="489" from-port="2" to-layer="491" to-port="0"/>
		<edge from-layer="490" from-port="0" to-layer="491" to-port="1"/>
		<edge from-layer="491" from-port="2" to-layer="493" to-port="0"/>
		<edge from-layer="492" from-port="0" to-layer="493" to-port="1"/>
		<edge from-layer="493" from-port="2" to-layer="494" to-port="0"/>
		<edge from-layer="494" from-port="1" to-layer="496" to-port="0"/>
		<edge from-layer="495" from-port="0" to-layer="496" to-port="1"/>
		<edge from-layer="496" from-port="2" to-layer="498" to-port="0"/>
		<edge from-layer="497" from-port="0" to-layer="498" to-port="1"/>
		<edge from-layer="498" from-port="2" to-layer="500" to-port="0"/>
		<edge from-layer="499" from-port="0" to-layer="500" to-port="1"/>
		<edge from-layer="500" from-port="2" to-layer="502" to-port="0"/>
		<edge from-layer="501" from-port="0" to-layer="502" to-port="1"/>
		<edge from-layer="486" from-port="2" to-layer="505" to-port="0"/>
		<edge from-layer="504" from-port="0" to-layer="505" to-port="1"/>
		<edge from-layer="505" from-port="2" to-layer="507" to-port="0"/>
		<edge from-layer="506" from-port="0" to-layer="507" to-port="1"/>
		<edge from-layer="486" from-port="2" to-layer="509" to-port="0"/>
		<edge from-layer="508" from-port="0" to-layer="509" to-port="1"/>
		<edge from-layer="484" from-port="1" to-layer="510" to-port="0"/>
		<edge from-layer="509" from-port="2" to-layer="510" to-port="1"/>
		<edge from-layer="510" from-port="2" to-layer="512" to-port="0"/>
		<edge from-layer="511" from-port="0" to-layer="512" to-port="1"/>
		<edge from-layer="512" from-port="2" to-layer="514" to-port="0"/>
		<edge from-layer="513" from-port="0" to-layer="514" to-port="1"/>
		<edge from-layer="503" from-port="0" to-layer="516" to-port="0"/>
		<edge from-layer="507" from-port="2" to-layer="516" to-port="1"/>
		<edge from-layer="514" from-port="2" to-layer="516" to-port="2"/>
		<edge from-layer="515" from-port="0" to-layer="516" to-port="3"/>
		<edge from-layer="516" from-port="4" to-layer="517" to-port="0"/>
		<edge from-layer="502" from-port="2" to-layer="518" to-port="0"/>
		<edge from-layer="517" from-port="1" to-layer="518" to-port="1"/>
		<edge from-layer="518" from-port="2" to-layer="520" to-port="0"/>
		<edge from-layer="519" from-port="0" to-layer="520" to-port="1"/>
		<edge from-layer="520" from-port="2" to-layer="522" to-port="0"/>
		<edge from-layer="521" from-port="0" to-layer="522" to-port="1"/>
		<edge from-layer="522" from-port="2" to-layer="524" to-port="0"/>
		<edge from-layer="523" from-port="0" to-layer="524" to-port="1"/>
		<edge from-layer="487" from-port="1" to-layer="525" to-port="0"/>
		<edge from-layer="524" from-port="2" to-layer="525" to-port="1"/>
		<edge from-layer="525" from-port="2" to-layer="527" to-port="0"/>
		<edge from-layer="526" from-port="0" to-layer="527" to-port="1"/>
		<edge from-layer="510" from-port="2" to-layer="528" to-port="0"/>
		<edge from-layer="520" from-port="3" to-layer="530" to-port="0"/>
		<edge from-layer="529" from-port="0" to-layer="530" to-port="1"/>
		<edge from-layer="530" from-port="2" to-layer="532" to-port="0"/>
		<edge from-layer="531" from-port="0" to-layer="532" to-port="1"/>
		<edge from-layer="528" from-port="1" to-layer="533" to-port="0"/>
		<edge from-layer="532" from-port="2" to-layer="533" to-port="1"/>
		<edge from-layer="533" from-port="2" to-layer="535" to-port="0"/>
		<edge from-layer="534" from-port="0" to-layer="535" to-port="1"/>
		<edge from-layer="527" from-port="2" to-layer="536" to-port="0"/>
		<edge from-layer="535" from-port="2" to-layer="536" to-port="1"/>
		<edge from-layer="536" from-port="2" to-layer="538" to-port="0"/>
		<edge from-layer="537" from-port="0" to-layer="538" to-port="1"/>
		<edge from-layer="538" from-port="2" to-layer="540" to-port="0"/>
		<edge from-layer="539" from-port="0" to-layer="540" to-port="1"/>
		<edge from-layer="386" from-port="2" to-layer="541" to-port="0"/>
		<edge from-layer="517" from-port="1" to-layer="541" to-port="1"/>
		<edge from-layer="541" from-port="2" to-layer="543" to-port="0"/>
		<edge from-layer="542" from-port="0" to-layer="543" to-port="1"/>
		<edge from-layer="540" from-port="2" to-layer="544" to-port="0"/>
		<edge from-layer="543" from-port="2" to-layer="544" to-port="1"/>
		<edge from-layer="544" from-port="2" to-layer="545" to-port="0"/>
		<edge from-layer="407" from-port="2" to-layer="546" to-port="0"/>
		<edge from-layer="481" from-port="2" to-layer="547" to-port="0"/>
	</edges>
	<meta_data>
		<MO_version value="2021.3.0-2787-60059f2c755-releases/2021/3"/>
		<cli_parameters>
			<caffe_parser_path value="DIR"/>
			<data_type value="FP32"/>
			<disable_nhwc_to_nchw value="False"/>
			<disable_omitting_optional value="False"/>
			<disable_resnet_optimization value="False"/>
			<disable_weights_compression value="False"/>
			<enable_concat_optimization value="False"/>
			<enable_flattening_nested_params value="False"/>
			<enable_ssd_gluoncv value="False"/>
			<extensions value="DIR"/>
			<framework value="onnx"/>
			<freeze_placeholder_with_value value="{}"/>
			<generate_deprecated_IR_V7 value="False"/>
			<input_model value="DIR/model_float32.onnx"/>
			<input_model_is_text value="False"/>
			<k value="DIR/CustomLayersMapping.xml"/>
			<keep_shape_ops value="True"/>
			<legacy_mxnet_model value="False"/>
			<log_level value="ERROR"/>
			<mean_scale_values value="{}"/>
			<mean_values value="()"/>
			<model_name value="model_float32"/>
			<output_dir value="DIR"/>
			<placeholder_data_types value="{}"/>
			<progress value="False"/>
			<remove_memory value="False"/>
			<remove_output_softmax value="False"/>
			<reverse_input_channels value="False"/>
			<save_params_from_nd value="False"/>
			<scale_values value="()"/>
			<silent value="False"/>
			<static_shape value="False"/>
			<stream_output value="False"/>
			<unset unset_cli_parameters="batch, counts, disable_fusing, disable_gfusing, finegrain_fusing, input, input_checkpoint, input_meta_graph, input_proto, input_shape, input_symbol, mean_file, mean_file_offsets, move_to_preprocess, nd_prefix_name, output, placeholder_shapes, pretrained_model_name, saved_model_dir, saved_model_tags, scale, tensorboard_logdir, tensorflow_custom_layer_libraries, tensorflow_custom_operations_config_update, tensorflow_object_detection_api_pipeline_config, tensorflow_use_custom_operations_config, transformations_config"/>
		</cli_parameters>
	</meta_data>
</net>
